<?xml version="1.0"?>
<net name="Model0" version="11">
	<layers>
		<layer id="3" name="input_ids" type="Parameter" version="opset1">
			<data shape="?,?" element_type="i64" />
			<output>
				<port id="0" precision="I64" names="input_ids">
					<dim>-1</dim>
					<dim>-1</dim>
				</port>
			</output>
		</layer>
		<layer id="2" name="attention_mask" type="Parameter" version="opset1">
			<data shape="?,?" element_type="i64" />
			<output>
				<port id="0" precision="I64" names="attention_mask">
					<dim>-1</dim>
					<dim>-1</dim>
				</port>
			</output>
		</layer>
		<layer id="1" name="position_ids" type="Parameter" version="opset1">
			<data shape="?,?" element_type="i64" />
			<output>
				<port id="0" precision="I64" names="position_ids">
					<dim>-1</dim>
					<dim>-1</dim>
				</port>
			</output>
		</layer>
		<layer id="0" name="beam_idx" type="Parameter" version="opset1">
			<data shape="?" element_type="i32" />
			<output>
				<port id="0" precision="I32" names="beam_idx">
					<dim>-1</dim>
				</port>
			</output>
		</layer>
		<layer id="4" name="Constant_148045" type="Const" version="opset1">
			<data element_type="f32" shape="" offset="0" size="4" />
			<output>
				<port id="0" precision="FP32" />
			</output>
		</layer>
		<layer id="5" name="ShapeOf_148018" type="ShapeOf" version="opset3">
			<data output_type="i64" />
			<input>
				<port id="0" precision="I64">
					<dim>-1</dim>
					<dim>-1</dim>
				</port>
			</input>
			<output>
				<port id="1" precision="I64">
					<dim>2</dim>
				</port>
			</output>
		</layer>
		<layer id="6" name="Constant_148020" type="Const" version="opset1">
			<data element_type="i64" shape="1" offset="4" size="8" />
			<output>
				<port id="0" precision="I64">
					<dim>1</dim>
				</port>
			</output>
		</layer>
		<layer id="7" name="Constant_148022" type="Const" version="opset1">
			<data element_type="i64" shape="" offset="4" size="8" />
			<output>
				<port id="0" precision="I64" />
			</output>
		</layer>
		<layer id="8" name="Gather_148023" type="Gather" version="opset8">
			<data batch_dims="0" />
			<input>
				<port id="0" precision="I64">
					<dim>2</dim>
				</port>
				<port id="1" precision="I64">
					<dim>1</dim>
				</port>
				<port id="2" precision="I64" />
			</input>
			<output>
				<port id="3" precision="I64">
					<dim>1</dim>
				</port>
			</output>
		</layer>
		<layer id="9" name="Constant_148038" type="Const" version="opset1">
			<data element_type="i64" shape="1" offset="12" size="8" />
			<output>
				<port id="0" precision="I64">
					<dim>1</dim>
				</port>
			</output>
		</layer>
		<layer id="10" name="Constant_148040" type="Const" version="opset1">
			<data element_type="i64" shape="1" offset="4" size="8" />
			<output>
				<port id="0" precision="I64">
					<dim>1</dim>
				</port>
			</output>
		</layer>
		<layer id="11" name="Constant_148042" type="Const" version="opset1">
			<data element_type="i64" shape="1" offset="20" size="8" />
			<output>
				<port id="0" precision="I64">
					<dim>1</dim>
				</port>
			</output>
		</layer>
		<layer id="12" name="Concat_148043" type="Concat" version="opset1">
			<data axis="0" />
			<input>
				<port id="0" precision="I64">
					<dim>1</dim>
				</port>
				<port id="1" precision="I64">
					<dim>1</dim>
				</port>
				<port id="2" precision="I64">
					<dim>1</dim>
				</port>
				<port id="3" precision="I64">
					<dim>1</dim>
				</port>
			</input>
			<output>
				<port id="4" precision="I64">
					<dim>4</dim>
				</port>
			</output>
		</layer>
		<layer id="13" name="Broadcast_148046" type="Broadcast" version="opset3">
			<data mode="numpy" />
			<input>
				<port id="0" precision="FP32" />
				<port id="1" precision="I64">
					<dim>4</dim>
				</port>
			</input>
			<output>
				<port id="2" precision="FP32">
					<dim>-1</dim>
					<dim>4</dim>
					<dim>0</dim>
					<dim>64</dim>
				</port>
			</output>
		</layer>
		<layer id="14" name="ReadValue_144376" type="ReadValue" version="opset6">
			<data variable_id="past_key_values.9.valuepresent.9.value" variable_type="f32" variable_shape="?,4,?,64" />
			<input>
				<port id="0" precision="FP32">
					<dim>-1</dim>
					<dim>4</dim>
					<dim>0</dim>
					<dim>64</dim>
				</port>
			</input>
			<output>
				<port id="1" precision="FP32" names="past_key_values.9.value">
					<dim>-1</dim>
					<dim>4</dim>
					<dim>-1</dim>
					<dim>64</dim>
				</port>
			</output>
		</layer>
		<layer id="15" name="Constant_140576" type="Const" version="opset1">
			<data element_type="i64" shape="" offset="4" size="8" />
			<output>
				<port id="0" precision="I64" />
			</output>
		</layer>
		<layer id="16" name="Gather_140577" type="Gather" version="opset8">
			<data batch_dims="0" />
			<input>
				<port id="0" precision="FP32">
					<dim>-1</dim>
					<dim>4</dim>
					<dim>-1</dim>
					<dim>64</dim>
				</port>
				<port id="1" precision="I32">
					<dim>-1</dim>
				</port>
				<port id="2" precision="I64" />
			</input>
			<output>
				<port id="3" precision="FP32">
					<dim>-1</dim>
					<dim>4</dim>
					<dim>-1</dim>
					<dim>64</dim>
				</port>
			</output>
		</layer>
		<layer id="17" name="Constant_119485" type="Const" version="opset1">
			<data element_type="f32" shape="1, 1, 2048" offset="28" size="8192" />
			<output>
				<port id="0" precision="FP32">
					<dim>1</dim>
					<dim>1</dim>
					<dim>2048</dim>
				</port>
			</output>
		</layer>
		<layer id="18" name="self.model.embed_tokens.weight" type="Const" version="opset1">
			<data element_type="u8" shape="32000, 2048" offset="8220" size="65536000" />
			<output>
				<port id="0" precision="U8">
					<dim>32000</dim>
					<dim>2048</dim>
				</port>
			</output>
		</layer>
		<layer id="19" name="Convert_152370" type="Convert" version="opset1">
			<data destination_type="f16" />
			<input>
				<port id="0" precision="U8">
					<dim>32000</dim>
					<dim>2048</dim>
				</port>
			</input>
			<output>
				<port id="1" precision="FP16">
					<dim>32000</dim>
					<dim>2048</dim>
				</port>
			</output>
		</layer>
		<layer id="20" name="self.model.embed_tokens.weight/zero_point" type="Const" version="opset1">
			<data element_type="u8" shape="32000, 1" offset="65544220" size="32000" />
			<output>
				<port id="0" precision="U8">
					<dim>32000</dim>
					<dim>1</dim>
				</port>
			</output>
		</layer>
		<layer id="21" name="Convert_152373" type="Convert" version="opset1">
			<data destination_type="f16" />
			<input>
				<port id="0" precision="U8">
					<dim>32000</dim>
					<dim>1</dim>
				</port>
			</input>
			<output>
				<port id="1" precision="FP16">
					<dim>32000</dim>
					<dim>1</dim>
				</port>
			</output>
		</layer>
		<layer id="22" name="self.model.embed_tokens.weight/zero_point/subtract" type="Subtract" version="opset1">
			<data auto_broadcast="numpy" />
			<input>
				<port id="0" precision="FP16">
					<dim>32000</dim>
					<dim>2048</dim>
				</port>
				<port id="1" precision="FP16">
					<dim>32000</dim>
					<dim>1</dim>
				</port>
			</input>
			<output>
				<port id="2" precision="FP16">
					<dim>32000</dim>
					<dim>2048</dim>
				</port>
			</output>
		</layer>
		<layer id="23" name="self.model.embed_tokens.weight/scale" type="Const" version="opset1">
			<data element_type="f16" shape="32000, 1" offset="65576220" size="64000" />
			<output>
				<port id="0" precision="FP16">
					<dim>32000</dim>
					<dim>1</dim>
				</port>
			</output>
		</layer>
		<layer id="24" name="self.model.embed_tokens.weight/fq_weights_0" type="Multiply" version="opset1">
			<data auto_broadcast="numpy" />
			<input>
				<port id="0" precision="FP16">
					<dim>32000</dim>
					<dim>2048</dim>
				</port>
				<port id="1" precision="FP16">
					<dim>32000</dim>
					<dim>1</dim>
				</port>
			</input>
			<output>
				<port id="2" precision="FP16">
					<dim>32000</dim>
					<dim>2048</dim>
				</port>
			</output>
		</layer>
		<layer id="25" name="self.model.embed_tokens.weight/fq_weights_0/convert" type="Convert" version="opset1">
			<data destination_type="f32" />
			<input>
				<port id="0" precision="FP16">
					<dim>32000</dim>
					<dim>2048</dim>
				</port>
			</input>
			<output>
				<port id="1" precision="FP32">
					<dim>32000</dim>
					<dim>2048</dim>
				</port>
			</output>
		</layer>
		<layer id="26" name="__module.model.embed_tokens/aten::embedding/Convert" type="Convert" version="opset1">
			<data destination_type="i32" />
			<input>
				<port id="0" precision="I64">
					<dim>-1</dim>
					<dim>-1</dim>
				</port>
			</input>
			<output>
				<port id="1" precision="I32">
					<dim>-1</dim>
					<dim>-1</dim>
				</port>
			</output>
		</layer>
		<layer id="27" name="__module.model.embed_tokens/aten::embedding/Constant" type="Const" version="opset1">
			<data element_type="i32" shape="" offset="0" size="4" />
			<output>
				<port id="0" precision="I32" />
			</output>
		</layer>
		<layer id="28" name="__module.model.embed_tokens/aten::embedding/Gather" type="Gather" version="opset8">
			<data batch_dims="0" />
			<input>
				<port id="0" precision="FP32">
					<dim>32000</dim>
					<dim>2048</dim>
				</port>
				<port id="1" precision="I32">
					<dim>-1</dim>
					<dim>-1</dim>
				</port>
				<port id="2" precision="I32" />
			</input>
			<output>
				<port id="3" precision="FP32" names="219,275,286,hidden_states.1,inputs_embeds">
					<dim>-1</dim>
					<dim>-1</dim>
					<dim>2048</dim>
				</port>
			</output>
		</layer>
		<layer id="29" name="Constant_119394" type="Const" version="opset1">
			<data element_type="f32" shape="1, 1, 2048" offset="65640220" size="8192" />
			<output>
				<port id="0" precision="FP32">
					<dim>1</dim>
					<dim>1</dim>
					<dim>2048</dim>
				</port>
			</output>
		</layer>
		<layer id="30" name="Constant_119393" type="Const" version="opset1">
			<data element_type="f32" shape="1, 1, 1" offset="65648412" size="4" />
			<output>
				<port id="0" precision="FP32">
					<dim>1</dim>
					<dim>1</dim>
					<dim>1</dim>
				</port>
			</output>
		</layer>
		<layer id="31" name="Constant_119391" type="Const" version="opset1">
			<data element_type="f32" shape="1, 1, 1" offset="65648416" size="4" />
			<output>
				<port id="0" precision="FP32">
					<dim>1</dim>
					<dim>1</dim>
					<dim>1</dim>
				</port>
			</output>
		</layer>
		<layer id="32" name="__module.model.layers.0.input_layernorm/aten::pow/Power" type="Power" version="opset1">
			<data auto_broadcast="numpy" />
			<input>
				<port id="0" precision="FP32">
					<dim>-1</dim>
					<dim>-1</dim>
					<dim>2048</dim>
				</port>
				<port id="1" precision="FP32">
					<dim>1</dim>
					<dim>1</dim>
					<dim>1</dim>
				</port>
			</input>
			<output>
				<port id="2" precision="FP32" names="276">
					<dim>-1</dim>
					<dim>-1</dim>
					<dim>2048</dim>
				</port>
			</output>
		</layer>
		<layer id="33" name="Constant_342" type="Const" version="opset1">
			<data element_type="i64" shape="1" offset="65648420" size="8" />
			<output>
				<port id="0" precision="I64" names="277">
					<dim>1</dim>
				</port>
			</output>
		</layer>
		<layer id="34" name="__module.model.layers.0.input_layernorm/aten::mean/ReduceMean" type="ReduceMean" version="opset1">
			<data keep_dims="true" />
			<input>
				<port id="0" precision="FP32">
					<dim>-1</dim>
					<dim>-1</dim>
					<dim>2048</dim>
				</port>
				<port id="1" precision="I64">
					<dim>1</dim>
				</port>
			</input>
			<output>
				<port id="2" precision="FP32" names="278,variance.1">
					<dim>-1</dim>
					<dim>-1</dim>
					<dim>1</dim>
				</port>
			</output>
		</layer>
		<layer id="35" name="Constant_119392" type="Const" version="opset1">
			<data element_type="f32" shape="1, 1, 1" offset="65648428" size="4" />
			<output>
				<port id="0" precision="FP32">
					<dim>1</dim>
					<dim>1</dim>
					<dim>1</dim>
				</port>
			</output>
		</layer>
		<layer id="36" name="__module.model.layers.0.input_layernorm/aten::add/Add" type="Add" version="opset1">
			<data auto_broadcast="numpy" />
			<input>
				<port id="0" precision="FP32">
					<dim>-1</dim>
					<dim>-1</dim>
					<dim>1</dim>
				</port>
				<port id="1" precision="FP32">
					<dim>1</dim>
					<dim>1</dim>
					<dim>1</dim>
				</port>
			</input>
			<output>
				<port id="2" precision="FP32" names="279">
					<dim>-1</dim>
					<dim>-1</dim>
					<dim>1</dim>
				</port>
			</output>
		</layer>
		<layer id="37" name="__module.model.layers.0.input_layernorm/aten::rsqrt/Sqrt" type="Sqrt" version="opset1">
			<input>
				<port id="0" precision="FP32">
					<dim>-1</dim>
					<dim>-1</dim>
					<dim>1</dim>
				</port>
			</input>
			<output>
				<port id="1" precision="FP32">
					<dim>-1</dim>
					<dim>-1</dim>
					<dim>1</dim>
				</port>
			</output>
		</layer>
		<layer id="38" name="__module.model.layers.0.input_layernorm/aten::rsqrt/Divide" type="Divide" version="opset1">
			<data auto_broadcast="numpy" m_pythondiv="true" />
			<input>
				<port id="0" precision="FP32">
					<dim>1</dim>
					<dim>1</dim>
					<dim>1</dim>
				</port>
				<port id="1" precision="FP32">
					<dim>-1</dim>
					<dim>-1</dim>
					<dim>1</dim>
				</port>
			</input>
			<output>
				<port id="2" precision="FP32" names="280">
					<dim>-1</dim>
					<dim>-1</dim>
					<dim>1</dim>
				</port>
			</output>
		</layer>
		<layer id="39" name="__module.model.layers.0.input_layernorm/aten::mul/Multiply" type="Multiply" version="opset1">
			<data auto_broadcast="numpy" />
			<input>
				<port id="0" precision="FP32">
					<dim>-1</dim>
					<dim>-1</dim>
					<dim>2048</dim>
				</port>
				<port id="1" precision="FP32">
					<dim>-1</dim>
					<dim>-1</dim>
					<dim>1</dim>
				</port>
			</input>
			<output>
				<port id="2" precision="FP32" names="281,282,hidden_states.3,hidden_states.5">
					<dim>-1</dim>
					<dim>-1</dim>
					<dim>2048</dim>
				</port>
			</output>
		</layer>
		<layer id="40" name="__module.model.layers.0.input_layernorm/aten::mul/Multiply_1" type="Multiply" version="opset1">
			<data auto_broadcast="numpy" />
			<input>
				<port id="0" precision="FP32">
					<dim>1</dim>
					<dim>1</dim>
					<dim>2048</dim>
				</port>
				<port id="1" precision="FP32">
					<dim>-1</dim>
					<dim>-1</dim>
					<dim>2048</dim>
				</port>
			</input>
			<output>
				<port id="2" precision="FP32" names="283,285,hidden_states.7">
					<dim>-1</dim>
					<dim>-1</dim>
					<dim>2048</dim>
				</port>
			</output>
		</layer>
		<layer id="41" name="self.model.layers.0.self_attn.q_proj.weight" type="Const" version="opset1">
			<data element_type="u8" shape="2048, 2048" offset="65648432" size="4194304" />
			<output>
				<port id="0" precision="U8">
					<dim>2048</dim>
					<dim>2048</dim>
				</port>
			</output>
		</layer>
		<layer id="42" name="Convert_152403" type="Convert" version="opset1">
			<data destination_type="f16" />
			<input>
				<port id="0" precision="U8">
					<dim>2048</dim>
					<dim>2048</dim>
				</port>
			</input>
			<output>
				<port id="1" precision="FP16">
					<dim>2048</dim>
					<dim>2048</dim>
				</port>
			</output>
		</layer>
		<layer id="43" name="self.model.layers.0.self_attn.q_proj.weight/zero_point" type="Const" version="opset1">
			<data element_type="u8" shape="2048, 1" offset="69842736" size="2048" />
			<output>
				<port id="0" precision="U8">
					<dim>2048</dim>
					<dim>1</dim>
				</port>
			</output>
		</layer>
		<layer id="44" name="Convert_152406" type="Convert" version="opset1">
			<data destination_type="f16" />
			<input>
				<port id="0" precision="U8">
					<dim>2048</dim>
					<dim>1</dim>
				</port>
			</input>
			<output>
				<port id="1" precision="FP16">
					<dim>2048</dim>
					<dim>1</dim>
				</port>
			</output>
		</layer>
		<layer id="45" name="self.model.layers.0.self_attn.q_proj.weight/zero_point/subtract" type="Subtract" version="opset1">
			<data auto_broadcast="numpy" />
			<input>
				<port id="0" precision="FP16">
					<dim>2048</dim>
					<dim>2048</dim>
				</port>
				<port id="1" precision="FP16">
					<dim>2048</dim>
					<dim>1</dim>
				</port>
			</input>
			<output>
				<port id="2" precision="FP16">
					<dim>2048</dim>
					<dim>2048</dim>
				</port>
			</output>
		</layer>
		<layer id="46" name="self.model.layers.0.self_attn.q_proj.weight/scale" type="Const" version="opset1">
			<data element_type="f16" shape="2048, 1" offset="69844784" size="4096" />
			<output>
				<port id="0" precision="FP16">
					<dim>2048</dim>
					<dim>1</dim>
				</port>
			</output>
		</layer>
		<layer id="47" name="self.model.layers.0.self_attn.q_proj.weight/fq_weights_1" type="Multiply" version="opset1">
			<data auto_broadcast="numpy" />
			<input>
				<port id="0" precision="FP16">
					<dim>2048</dim>
					<dim>2048</dim>
				</port>
				<port id="1" precision="FP16">
					<dim>2048</dim>
					<dim>1</dim>
				</port>
			</input>
			<output>
				<port id="2" precision="FP16">
					<dim>2048</dim>
					<dim>2048</dim>
				</port>
			</output>
		</layer>
		<layer id="48" name="self.model.layers.0.self_attn.q_proj.weight/fq_weights_1/convert" type="Convert" version="opset1">
			<data destination_type="f32" />
			<input>
				<port id="0" precision="FP16">
					<dim>2048</dim>
					<dim>2048</dim>
				</port>
			</input>
			<output>
				<port id="1" precision="FP32">
					<dim>2048</dim>
					<dim>2048</dim>
				</port>
			</output>
		</layer>
		<layer id="49" name="__module.model.layers.0.self_attn.q_proj/aten::linear/MatMul" type="MatMul" version="opset1">
			<data transpose_a="false" transpose_b="true" />
			<input>
				<port id="0" precision="FP32">
					<dim>-1</dim>
					<dim>-1</dim>
					<dim>2048</dim>
				</port>
				<port id="1" precision="FP32">
					<dim>2048</dim>
					<dim>2048</dim>
				</port>
			</input>
			<output>
				<port id="2" precision="FP32" names="295,query_states.1">
					<dim>-1</dim>
					<dim>-1</dim>
					<dim>2048</dim>
				</port>
			</output>
		</layer>
		<layer id="50" name="Constant_125619" type="Const" version="opset1">
			<data element_type="i64" shape="4" offset="69848880" size="32" />
			<output>
				<port id="0" precision="I64">
					<dim>4</dim>
				</port>
			</output>
		</layer>
		<layer id="51" name="__module.model.layers.0.self_attn/aten::view/Reshape" type="Reshape" version="opset1">
			<data special_zero="true" />
			<input>
				<port id="0" precision="FP32">
					<dim>-1</dim>
					<dim>-1</dim>
					<dim>2048</dim>
				</port>
				<port id="1" precision="I64">
					<dim>4</dim>
				</port>
			</input>
			<output>
				<port id="2" precision="FP32" names="301">
					<dim>-1</dim>
					<dim>-1</dim>
					<dim>32</dim>
					<dim>64</dim>
				</port>
			</output>
		</layer>
		<layer id="52" name="__module.model.layers.0.self_attn/aten::transpose/ScatterElementsUpdate" type="Const" version="opset1">
			<data element_type="i32" shape="4" offset="69848912" size="16" />
			<output>
				<port id="0" precision="I32">
					<dim>4</dim>
				</port>
			</output>
		</layer>
		<layer id="53" name="__module.model.layers.0.self_attn/aten::transpose/Transpose" type="Transpose" version="opset1">
			<input>
				<port id="0" precision="FP32">
					<dim>-1</dim>
					<dim>-1</dim>
					<dim>32</dim>
					<dim>64</dim>
				</port>
				<port id="1" precision="I32">
					<dim>4</dim>
				</port>
			</input>
			<output>
				<port id="2" precision="FP32" names="302,q.1">
					<dim>-1</dim>
					<dim>32</dim>
					<dim>-1</dim>
					<dim>64</dim>
				</port>
			</output>
		</layer>
		<layer id="54" name="__module.model.layers.0.self_attn.rotary_emb/aten::to/Convert" type="Const" version="opset1">
			<data element_type="f32" shape="1, 32, 1" offset="69848928" size="128" />
			<output>
				<port id="0" precision="FP32" names="313">
					<dim>1</dim>
					<dim>32</dim>
					<dim>1</dim>
				</port>
			</output>
		</layer>
		<layer id="55" name="ShapeOf_123688" type="ShapeOf" version="opset3">
			<data output_type="i64" />
			<input>
				<port id="0" precision="I64">
					<dim>-1</dim>
					<dim>-1</dim>
				</port>
			</input>
			<output>
				<port id="1" precision="I64">
					<dim>2</dim>
				</port>
			</output>
		</layer>
		<layer id="56" name="Constant_123689" type="Const" version="opset1">
			<data element_type="i64" shape="1" offset="4" size="8" />
			<output>
				<port id="0" precision="I64">
					<dim>1</dim>
				</port>
			</output>
		</layer>
		<layer id="57" name="Constant_123690" type="Const" version="opset1">
			<data element_type="i64" shape="" offset="4" size="8" />
			<output>
				<port id="0" precision="I64" />
			</output>
		</layer>
		<layer id="58" name="Gather_123691" type="Gather" version="opset8">
			<data batch_dims="0" />
			<input>
				<port id="0" precision="I64">
					<dim>2</dim>
				</port>
				<port id="1" precision="I64">
					<dim>1</dim>
				</port>
				<port id="2" precision="I64" />
			</input>
			<output>
				<port id="3" precision="I64" names="1037,1217,1397,1577,1757,1937,2117,2297,2477,2657,2837,3017,314,3197,3377,3557,3737,3917,4097,497,677,857">
					<dim>1</dim>
				</port>
			</output>
		</layer>
		<layer id="59" name="Constant_97109" type="Const" version="opset1">
			<data element_type="i64" shape="1" offset="69849056" size="8" />
			<output>
				<port id="0" precision="I64">
					<dim>1</dim>
				</port>
			</output>
		</layer>
		<layer id="60" name="Constant_97111" type="Const" version="opset1">
			<data element_type="i64" shape="1" offset="69849056" size="8" />
			<output>
				<port id="0" precision="I64">
					<dim>1</dim>
				</port>
			</output>
		</layer>
		<layer id="61" name="__module.model.layers.0.self_attn.rotary_emb/prim::ListConstruct/Concat" type="Concat" version="opset1">
			<data axis="0" />
			<input>
				<port id="0" precision="I64">
					<dim>1</dim>
				</port>
				<port id="1" precision="I64">
					<dim>1</dim>
				</port>
				<port id="2" precision="I64">
					<dim>1</dim>
				</port>
			</input>
			<output>
				<port id="3" precision="I64" names="1038,1218,1398,1578,1758,1938,2118,2298,2478,2658,2838,3018,315,3198,3378,3558,3738,3918,4098,498,678,858">
					<dim>3</dim>
				</port>
			</output>
		</layer>
		<layer id="62" name="__module.model.layers.0.self_attn.rotary_emb/aten::expand/Broadcast" type="Broadcast" version="opset3">
			<data mode="bidirectional" />
			<input>
				<port id="0" precision="FP32">
					<dim>1</dim>
					<dim>32</dim>
					<dim>1</dim>
				</port>
				<port id="1" precision="I64">
					<dim>3</dim>
				</port>
			</input>
			<output>
				<port id="2" precision="FP32" names="316,321,inv_freq_expanded.1,inv_freq_expanded.3">
					<dim>-1</dim>
					<dim>32</dim>
					<dim>1</dim>
				</port>
			</output>
		</layer>
		<layer id="63" name="167" type="Const" version="opset1">
			<data element_type="i64" shape="" offset="69849056" size="8" />
			<output>
				<port id="0" precision="I64" names="167" />
			</output>
		</layer>
		<layer id="64" name="__module.model.layers.0.self_attn.rotary_emb/aten::unsqueeze/Unsqueeze" type="Unsqueeze" version="opset1">
			<input>
				<port id="0" precision="I64">
					<dim>-1</dim>
					<dim>-1</dim>
				</port>
				<port id="1" precision="I64" />
			</input>
			<output>
				<port id="2" precision="I64" names="1041,1042,1221,1222,1401,1402,1581,1582,1761,1762,1941,1942,2121,2122,2301,2302,2481,2482,2661,2662,2841,2842,3021,3022,318,319,3201,3202,3381,3382,3561,3562,3741,3742,3921,3922,4101,4102,501,502,681,682,861,862">
					<dim>-1</dim>
					<dim>1</dim>
					<dim>-1</dim>
				</port>
			</output>
		</layer>
		<layer id="65" name="__module.model.layers.0.self_attn.rotary_emb/aten::to/Convert_2" type="Convert" version="opset1">
			<data destination_type="f32" />
			<input>
				<port id="0" precision="I64">
					<dim>-1</dim>
					<dim>1</dim>
					<dim>-1</dim>
				</port>
			</input>
			<output>
				<port id="1" precision="FP32" names="1043,1045,1223,1225,1403,1405,1583,1585,1763,1765,1943,1945,2123,2125,2303,2305,2483,2485,2663,2665,2843,2845,3023,3025,320,3203,3205,322,3383,3385,3563,3565,3743,3745,3923,3925,4103,4105,503,505,683,685,863,865,position_ids_expanded,position_ids_expanded.1,position_ids_expanded.11,position_ids_expanded.13,position_ids_expanded.15,position_ids_expanded.17,position_ids_expanded.19,position_ids_expanded.21,position_ids_expanded.23,position_ids_expanded.25,position_ids_expanded.27,position_ids_expanded.29,position_ids_expanded.3,position_ids_expanded.31,position_ids_expanded.33,position_ids_expanded.35,position_ids_expanded.37,position_ids_expanded.39,position_ids_expanded.41,position_ids_expanded.43,position_ids_expanded.45,position_ids_expanded.47,position_ids_expanded.49,position_ids_expanded.5,position_ids_expanded.51,position_ids_expanded.53,position_ids_expanded.55,position_ids_expanded.57,position_ids_expanded.59,position_ids_expanded.61,position_ids_expanded.63,position_ids_expanded.65,position_ids_expanded.67,position_ids_expanded.69,position_ids_expanded.7,position_ids_expanded.71,position_ids_expanded.73,position_ids_expanded.75,position_ids_expanded.77,position_ids_expanded.79,position_ids_expanded.81,position_ids_expanded.83,position_ids_expanded.85,position_ids_expanded.9">
					<dim>-1</dim>
					<dim>1</dim>
					<dim>-1</dim>
				</port>
			</output>
		</layer>
		<layer id="66" name="__module.model.layers.0.self_attn.rotary_emb/aten::matmul/MatMul" type="MatMul" version="opset1">
			<data transpose_a="false" transpose_b="false" />
			<input>
				<port id="0" precision="FP32">
					<dim>-1</dim>
					<dim>32</dim>
					<dim>1</dim>
				</port>
				<port id="1" precision="FP32">
					<dim>-1</dim>
					<dim>1</dim>
					<dim>-1</dim>
				</port>
			</input>
			<output>
				<port id="2" precision="FP32" names="323">
					<dim>-1</dim>
					<dim>32</dim>
					<dim>-1</dim>
				</port>
			</output>
		</layer>
		<layer id="67" name="__module.model.layers.0.self_attn.rotary_emb/aten::transpose/ScatterElementsUpdate" type="Const" version="opset1">
			<data element_type="i32" shape="3" offset="69849064" size="12" />
			<output>
				<port id="0" precision="I32">
					<dim>3</dim>
				</port>
			</output>
		</layer>
		<layer id="68" name="__module.model.layers.0.self_attn.rotary_emb/aten::transpose/Transpose" type="Transpose" version="opset1">
			<input>
				<port id="0" precision="FP32">
					<dim>-1</dim>
					<dim>32</dim>
					<dim>-1</dim>
				</port>
				<port id="1" precision="I32">
					<dim>3</dim>
				</port>
			</input>
			<output>
				<port id="2" precision="FP32" names="324">
					<dim>-1</dim>
					<dim>-1</dim>
					<dim>32</dim>
				</port>
			</output>
		</layer>
		<layer id="69" name="__module.model.layers.0.self_attn.rotary_emb/aten::cat/Concat" type="Concat" version="opset1">
			<data axis="-1" />
			<input>
				<port id="0" precision="FP32">
					<dim>-1</dim>
					<dim>-1</dim>
					<dim>32</dim>
				</port>
				<port id="1" precision="FP32">
					<dim>-1</dim>
					<dim>-1</dim>
					<dim>32</dim>
				</port>
			</input>
			<output>
				<port id="2" precision="FP32" names="326,emb.1">
					<dim>-1</dim>
					<dim>-1</dim>
					<dim>64</dim>
				</port>
			</output>
		</layer>
		<layer id="70" name="__module.model.layers.0.self_attn.rotary_emb/aten::cos/Cos" type="Cos" version="opset1">
			<input>
				<port id="0" precision="FP32">
					<dim>-1</dim>
					<dim>-1</dim>
					<dim>64</dim>
				</port>
			</input>
			<output>
				<port id="1" precision="FP32" names="327,329,332,cos.1,cos.3">
					<dim>-1</dim>
					<dim>-1</dim>
					<dim>64</dim>
				</port>
			</output>
		</layer>
		<layer id="71" name="__module.model.layers.0.self_attn/aten::unsqueeze/Unsqueeze" type="Unsqueeze" version="opset1">
			<input>
				<port id="0" precision="FP32">
					<dim>-1</dim>
					<dim>-1</dim>
					<dim>64</dim>
				</port>
				<port id="1" precision="I64" />
			</input>
			<output>
				<port id="2" precision="FP32" names="334,cos.5">
					<dim>-1</dim>
					<dim>1</dim>
					<dim>-1</dim>
					<dim>64</dim>
				</port>
			</output>
		</layer>
		<layer id="72" name="__module.model.layers.0.self_attn/aten::mul/Multiply" type="Multiply" version="opset1">
			<data auto_broadcast="numpy" />
			<input>
				<port id="0" precision="FP32">
					<dim>-1</dim>
					<dim>32</dim>
					<dim>-1</dim>
					<dim>64</dim>
				</port>
				<port id="1" precision="FP32">
					<dim>-1</dim>
					<dim>1</dim>
					<dim>-1</dim>
					<dim>64</dim>
				</port>
			</input>
			<output>
				<port id="2" precision="FP32" names="336">
					<dim>-1</dim>
					<dim>32</dim>
					<dim>-1</dim>
					<dim>64</dim>
				</port>
			</output>
		</layer>
		<layer id="73" name="Constant_104103" type="Const" version="opset1">
			<data element_type="i64" shape="4" offset="69849076" size="32" />
			<output>
				<port id="0" precision="I64">
					<dim>4</dim>
				</port>
			</output>
		</layer>
		<layer id="74" name="Constant_104102" type="Const" version="opset1">
			<data element_type="i64" shape="1" offset="69849108" size="8" />
			<output>
				<port id="0" precision="I64">
					<dim>1</dim>
				</port>
			</output>
		</layer>
		<layer id="75" name="__module.model.layers.0.self_attn/aten::size/ShapeOf_3" type="ShapeOf" version="opset3">
			<data output_type="i64" />
			<input>
				<port id="0" precision="FP32">
					<dim>-1</dim>
					<dim>32</dim>
					<dim>-1</dim>
					<dim>64</dim>
				</port>
			</input>
			<output>
				<port id="1" precision="I64">
					<dim>4</dim>
				</port>
			</output>
		</layer>
		<layer id="76" name="160" type="Const" version="opset1">
			<data element_type="i64" shape="" offset="69849108" size="8" />
			<output>
				<port id="0" precision="I64" names="160" />
			</output>
		</layer>
		<layer id="77" name="__module.model.layers.0.self_attn/aten::size/Constant_3" type="Const" version="opset1">
			<data element_type="i32" shape="" offset="0" size="4" />
			<output>
				<port id="0" precision="I32" />
			</output>
		</layer>
		<layer id="78" name="__module.model.layers.0.self_attn/aten::size/Gather_3" type="Gather" version="opset8">
			<data batch_dims="0" />
			<input>
				<port id="0" precision="I64">
					<dim>4</dim>
				</port>
				<port id="1" precision="I64" />
				<port id="2" precision="I32" />
			</input>
			<output>
				<port id="3" precision="I64" names="337,342" />
			</output>
		</layer>
		<layer id="79" name="Constant_37" type="Const" version="opset1">
			<data element_type="i64" shape="" offset="69849116" size="8" />
			<output>
				<port id="0" precision="I64" names="155" />
			</output>
		</layer>
		<layer id="80" name="__module.model.layers.0.self_attn/aten::floor_divide/Divide_1" type="Divide" version="opset1">
			<data auto_broadcast="numpy" m_pythondiv="true" />
			<input>
				<port id="0" precision="I64" />
				<port id="1" precision="I64" />
			</input>
			<output>
				<port id="2" precision="I64" />
			</output>
		</layer>
		<layer id="81" name="__module.model.layers.0.self_attn/aten::floor_divide/Floor_1" type="Floor" version="opset1">
			<input>
				<port id="0" precision="I64" />
			</input>
			<output>
				<port id="1" precision="I64" names="339,340,344,345" />
			</output>
		</layer>
		<layer id="82" name="Constant_187328" type="Const" version="opset1">
			<data element_type="i64" shape="1" offset="65648420" size="8" />
			<output>
				<port id="0" precision="I64">
					<dim>1</dim>
				</port>
			</output>
		</layer>
		<layer id="83" name="__module.model.layers.0.self_attn/aten::slice/Unsqueeze_5" type="Reshape" version="opset1">
			<data special_zero="false" />
			<input>
				<port id="0" precision="I64" />
				<port id="1" precision="I64">
					<dim>1</dim>
				</port>
			</input>
			<output>
				<port id="2" precision="I64">
					<dim>1</dim>
				</port>
			</output>
		</layer>
		<layer id="84" name="Constant_104101" type="Const" version="opset1">
			<data element_type="i32" shape="1" offset="0" size="4" />
			<output>
				<port id="0" precision="I32">
					<dim>1</dim>
				</port>
			</output>
		</layer>
		<layer id="85" name="ScatterUpdate_104104" type="ScatterUpdate" version="opset3">
			<input>
				<port id="0" precision="I64">
					<dim>4</dim>
				</port>
				<port id="1" precision="I64">
					<dim>1</dim>
				</port>
				<port id="2" precision="I64">
					<dim>1</dim>
				</port>
				<port id="3" precision="I32">
					<dim>1</dim>
				</port>
			</input>
			<output>
				<port id="4" precision="I64">
					<dim>4</dim>
				</port>
			</output>
		</layer>
		<layer id="86" name="Constant_104107" type="Const" version="opset1">
			<data element_type="i64" shape="4" offset="69849124" size="32" />
			<output>
				<port id="0" precision="I64">
					<dim>4</dim>
				</port>
			</output>
		</layer>
		<layer id="87" name="Constant_104110" type="Const" version="opset1">
			<data element_type="i64" shape="4" offset="69849156" size="32" />
			<output>
				<port id="0" precision="I64">
					<dim>4</dim>
				</port>
			</output>
		</layer>
		<layer id="88" name="__module.model.layers.0.self_attn/aten::slice/Slice" type="StridedSlice" version="opset1">
			<data begin_mask="1, 1, 1, 0" end_mask="1, 1, 1, 0" new_axis_mask="" shrink_axis_mask="" ellipsis_mask="" />
			<input>
				<port id="0" precision="FP32">
					<dim>-1</dim>
					<dim>32</dim>
					<dim>-1</dim>
					<dim>64</dim>
				</port>
				<port id="1" precision="I64">
					<dim>4</dim>
				</port>
				<port id="2" precision="I64">
					<dim>4</dim>
				</port>
				<port id="3" precision="I64">
					<dim>4</dim>
				</port>
			</input>
			<output>
				<port id="4" precision="FP32" names="346,x2.1">
					<dim>-1</dim>
					<dim>32</dim>
					<dim>-1</dim>
					<dim>32</dim>
				</port>
			</output>
		</layer>
		<layer id="89" name="Constant_119395" type="Const" version="opset1">
			<data element_type="f32" shape="1, 1, 1, 1" offset="69849188" size="4" />
			<output>
				<port id="0" precision="FP32">
					<dim>1</dim>
					<dim>1</dim>
					<dim>1</dim>
					<dim>1</dim>
				</port>
			</output>
		</layer>
		<layer id="90" name="__module.model.layers.0.self_attn/aten::neg/Multiply" type="Multiply" version="opset1">
			<data auto_broadcast="numpy" />
			<input>
				<port id="0" precision="FP32">
					<dim>-1</dim>
					<dim>32</dim>
					<dim>-1</dim>
					<dim>32</dim>
				</port>
				<port id="1" precision="FP32">
					<dim>1</dim>
					<dim>1</dim>
					<dim>1</dim>
					<dim>1</dim>
				</port>
			</input>
			<output>
				<port id="2" precision="FP32" names="347">
					<dim>-1</dim>
					<dim>32</dim>
					<dim>-1</dim>
					<dim>32</dim>
				</port>
			</output>
		</layer>
		<layer id="91" name="Constant_104155" type="Const" version="opset1">
			<data element_type="i64" shape="4" offset="69849076" size="32" />
			<output>
				<port id="0" precision="I64">
					<dim>4</dim>
				</port>
			</output>
		</layer>
		<layer id="92" name="Constant_104160" type="Const" version="opset1">
			<data element_type="i64" shape="4" offset="69849156" size="32" />
			<output>
				<port id="0" precision="I64">
					<dim>4</dim>
				</port>
			</output>
		</layer>
		<layer id="93" name="__module.model.layers.0.self_attn/aten::slice/Slice_1" type="StridedSlice" version="opset1">
			<data begin_mask="1, 1, 1, 0" end_mask="1, 1, 1, 0" new_axis_mask="" shrink_axis_mask="" ellipsis_mask="" />
			<input>
				<port id="0" precision="FP32">
					<dim>-1</dim>
					<dim>32</dim>
					<dim>-1</dim>
					<dim>64</dim>
				</port>
				<port id="1" precision="I64">
					<dim>4</dim>
				</port>
				<port id="2" precision="I64">
					<dim>4</dim>
				</port>
				<port id="3" precision="I64">
					<dim>4</dim>
				</port>
			</input>
			<output>
				<port id="4" precision="FP32" names="341">
					<dim>-1</dim>
					<dim>32</dim>
					<dim>-1</dim>
					<dim>32</dim>
				</port>
			</output>
		</layer>
		<layer id="94" name="__module.model.layers.0.self_attn/aten::cat/Concat" type="Concat" version="opset1">
			<data axis="-1" />
			<input>
				<port id="0" precision="FP32">
					<dim>-1</dim>
					<dim>32</dim>
					<dim>-1</dim>
					<dim>32</dim>
				</port>
				<port id="1" precision="FP32">
					<dim>-1</dim>
					<dim>32</dim>
					<dim>-1</dim>
					<dim>32</dim>
				</port>
			</input>
			<output>
				<port id="2" precision="FP32" names="349">
					<dim>-1</dim>
					<dim>32</dim>
					<dim>-1</dim>
					<dim>64</dim>
				</port>
			</output>
		</layer>
		<layer id="95" name="__module.model.layers.0.self_attn.rotary_emb/aten::sin/Sin" type="Sin" version="opset1">
			<input>
				<port id="0" precision="FP32">
					<dim>-1</dim>
					<dim>-1</dim>
					<dim>64</dim>
				</port>
			</input>
			<output>
				<port id="1" precision="FP32" names="328,330,333,sin.1,sin.3">
					<dim>-1</dim>
					<dim>-1</dim>
					<dim>64</dim>
				</port>
			</output>
		</layer>
		<layer id="96" name="__module.model.layers.0.self_attn/aten::unsqueeze/Unsqueeze_1" type="Unsqueeze" version="opset1">
			<input>
				<port id="0" precision="FP32">
					<dim>-1</dim>
					<dim>-1</dim>
					<dim>64</dim>
				</port>
				<port id="1" precision="I64" />
			</input>
			<output>
				<port id="2" precision="FP32" names="335,sin.5">
					<dim>-1</dim>
					<dim>1</dim>
					<dim>-1</dim>
					<dim>64</dim>
				</port>
			</output>
		</layer>
		<layer id="97" name="__module.model.layers.0.self_attn/aten::mul/Multiply_1" type="Multiply" version="opset1">
			<data auto_broadcast="numpy" />
			<input>
				<port id="0" precision="FP32">
					<dim>-1</dim>
					<dim>32</dim>
					<dim>-1</dim>
					<dim>64</dim>
				</port>
				<port id="1" precision="FP32">
					<dim>-1</dim>
					<dim>1</dim>
					<dim>-1</dim>
					<dim>64</dim>
				</port>
			</input>
			<output>
				<port id="2" precision="FP32" names="350">
					<dim>-1</dim>
					<dim>32</dim>
					<dim>-1</dim>
					<dim>64</dim>
				</port>
			</output>
		</layer>
		<layer id="98" name="__module.model.layers.0.self_attn/aten::add/Add" type="Add" version="opset1">
			<data auto_broadcast="numpy" />
			<input>
				<port id="0" precision="FP32">
					<dim>-1</dim>
					<dim>32</dim>
					<dim>-1</dim>
					<dim>64</dim>
				</port>
				<port id="1" precision="FP32">
					<dim>-1</dim>
					<dim>32</dim>
					<dim>-1</dim>
					<dim>64</dim>
				</port>
			</input>
			<output>
				<port id="2" precision="FP32" names="351">
					<dim>-1</dim>
					<dim>32</dim>
					<dim>-1</dim>
					<dim>64</dim>
				</port>
			</output>
		</layer>
		<layer id="99" name="ReadValue_144290" type="ReadValue" version="opset6">
			<data variable_id="past_key_values.0.keypresent.0.key" variable_type="f32" variable_shape="?,4,?,64" />
			<input>
				<port id="0" precision="FP32">
					<dim>-1</dim>
					<dim>4</dim>
					<dim>0</dim>
					<dim>64</dim>
				</port>
			</input>
			<output>
				<port id="1" precision="FP32" names="past_key_values.0.key">
					<dim>-1</dim>
					<dim>4</dim>
					<dim>-1</dim>
					<dim>64</dim>
				</port>
			</output>
		</layer>
		<layer id="100" name="Constant_140519" type="Const" version="opset1">
			<data element_type="i64" shape="" offset="4" size="8" />
			<output>
				<port id="0" precision="I64" />
			</output>
		</layer>
		<layer id="101" name="Gather_140520" type="Gather" version="opset8">
			<data batch_dims="0" />
			<input>
				<port id="0" precision="FP32">
					<dim>-1</dim>
					<dim>4</dim>
					<dim>-1</dim>
					<dim>64</dim>
				</port>
				<port id="1" precision="I32">
					<dim>-1</dim>
				</port>
				<port id="2" precision="I64" />
			</input>
			<output>
				<port id="3" precision="FP32">
					<dim>-1</dim>
					<dim>4</dim>
					<dim>-1</dim>
					<dim>64</dim>
				</port>
			</output>
		</layer>
		<layer id="102" name="self.model.layers.0.self_attn.k_proj.weight" type="Const" version="opset1">
			<data element_type="u8" shape="256, 2048" offset="69849192" size="524288" />
			<output>
				<port id="0" precision="U8">
					<dim>256</dim>
					<dim>2048</dim>
				</port>
			</output>
		</layer>
		<layer id="103" name="Convert_152381" type="Convert" version="opset1">
			<data destination_type="f16" />
			<input>
				<port id="0" precision="U8">
					<dim>256</dim>
					<dim>2048</dim>
				</port>
			</input>
			<output>
				<port id="1" precision="FP16">
					<dim>256</dim>
					<dim>2048</dim>
				</port>
			</output>
		</layer>
		<layer id="104" name="self.model.layers.0.self_attn.k_proj.weight/zero_point" type="Const" version="opset1">
			<data element_type="u8" shape="256, 1" offset="70373480" size="256" />
			<output>
				<port id="0" precision="U8">
					<dim>256</dim>
					<dim>1</dim>
				</port>
			</output>
		</layer>
		<layer id="105" name="Convert_152384" type="Convert" version="opset1">
			<data destination_type="f16" />
			<input>
				<port id="0" precision="U8">
					<dim>256</dim>
					<dim>1</dim>
				</port>
			</input>
			<output>
				<port id="1" precision="FP16">
					<dim>256</dim>
					<dim>1</dim>
				</port>
			</output>
		</layer>
		<layer id="106" name="self.model.layers.0.self_attn.k_proj.weight/zero_point/subtract" type="Subtract" version="opset1">
			<data auto_broadcast="numpy" />
			<input>
				<port id="0" precision="FP16">
					<dim>256</dim>
					<dim>2048</dim>
				</port>
				<port id="1" precision="FP16">
					<dim>256</dim>
					<dim>1</dim>
				</port>
			</input>
			<output>
				<port id="2" precision="FP16">
					<dim>256</dim>
					<dim>2048</dim>
				</port>
			</output>
		</layer>
		<layer id="107" name="self.model.layers.0.self_attn.k_proj.weight/scale" type="Const" version="opset1">
			<data element_type="f16" shape="256, 1" offset="70373736" size="512" />
			<output>
				<port id="0" precision="FP16">
					<dim>256</dim>
					<dim>1</dim>
				</port>
			</output>
		</layer>
		<layer id="108" name="self.model.layers.0.self_attn.k_proj.weight/fq_weights_1" type="Multiply" version="opset1">
			<data auto_broadcast="numpy" />
			<input>
				<port id="0" precision="FP16">
					<dim>256</dim>
					<dim>2048</dim>
				</port>
				<port id="1" precision="FP16">
					<dim>256</dim>
					<dim>1</dim>
				</port>
			</input>
			<output>
				<port id="2" precision="FP16">
					<dim>256</dim>
					<dim>2048</dim>
				</port>
			</output>
		</layer>
		<layer id="109" name="self.model.layers.0.self_attn.k_proj.weight/fq_weights_1/convert" type="Convert" version="opset1">
			<data destination_type="f32" />
			<input>
				<port id="0" precision="FP16">
					<dim>256</dim>
					<dim>2048</dim>
				</port>
			</input>
			<output>
				<port id="1" precision="FP32">
					<dim>256</dim>
					<dim>2048</dim>
				</port>
			</output>
		</layer>
		<layer id="110" name="__module.model.layers.0.self_attn.k_proj/aten::linear/MatMul" type="MatMul" version="opset1">
			<data transpose_a="false" transpose_b="true" />
			<input>
				<port id="0" precision="FP32">
					<dim>-1</dim>
					<dim>-1</dim>
					<dim>2048</dim>
				</port>
				<port id="1" precision="FP32">
					<dim>256</dim>
					<dim>2048</dim>
				</port>
			</input>
			<output>
				<port id="2" precision="FP32" names="297,key_states.3">
					<dim>-1</dim>
					<dim>-1</dim>
					<dim>256</dim>
				</port>
			</output>
		</layer>
		<layer id="111" name="Constant_125620" type="Const" version="opset1">
			<data element_type="i64" shape="4" offset="70374248" size="32" />
			<output>
				<port id="0" precision="I64">
					<dim>4</dim>
				</port>
			</output>
		</layer>
		<layer id="112" name="__module.model.layers.0.self_attn/aten::view/Reshape_1" type="Reshape" version="opset1">
			<data special_zero="true" />
			<input>
				<port id="0" precision="FP32">
					<dim>-1</dim>
					<dim>-1</dim>
					<dim>256</dim>
				</port>
				<port id="1" precision="I64">
					<dim>4</dim>
				</port>
			</input>
			<output>
				<port id="2" precision="FP32" names="304">
					<dim>-1</dim>
					<dim>-1</dim>
					<dim>4</dim>
					<dim>64</dim>
				</port>
			</output>
		</layer>
		<layer id="113" name="__module.model.layers.0.self_attn/aten::transpose/ScatterElementsUpdate_1" type="Const" version="opset1">
			<data element_type="i32" shape="4" offset="69848912" size="16" />
			<output>
				<port id="0" precision="I32">
					<dim>4</dim>
				</port>
			</output>
		</layer>
		<layer id="114" name="__module.model.layers.0.self_attn/aten::transpose/Transpose_1" type="Transpose" version="opset1">
			<input>
				<port id="0" precision="FP32">
					<dim>-1</dim>
					<dim>-1</dim>
					<dim>4</dim>
					<dim>64</dim>
				</port>
				<port id="1" precision="I32">
					<dim>4</dim>
				</port>
			</input>
			<output>
				<port id="2" precision="FP32" names="305,k.1">
					<dim>-1</dim>
					<dim>4</dim>
					<dim>-1</dim>
					<dim>64</dim>
				</port>
			</output>
		</layer>
		<layer id="115" name="__module.model.layers.0.self_attn/aten::mul/Multiply_2" type="Multiply" version="opset1">
			<data auto_broadcast="numpy" />
			<input>
				<port id="0" precision="FP32">
					<dim>-1</dim>
					<dim>4</dim>
					<dim>-1</dim>
					<dim>64</dim>
				</port>
				<port id="1" precision="FP32">
					<dim>-1</dim>
					<dim>1</dim>
					<dim>-1</dim>
					<dim>64</dim>
				</port>
			</input>
			<output>
				<port id="2" precision="FP32" names="352">
					<dim>-1</dim>
					<dim>4</dim>
					<dim>-1</dim>
					<dim>64</dim>
				</port>
			</output>
		</layer>
		<layer id="116" name="Constant_104203" type="Const" version="opset1">
			<data element_type="i64" shape="4" offset="69849076" size="32" />
			<output>
				<port id="0" precision="I64">
					<dim>4</dim>
				</port>
			</output>
		</layer>
		<layer id="117" name="Constant_104202" type="Const" version="opset1">
			<data element_type="i64" shape="1" offset="69849108" size="8" />
			<output>
				<port id="0" precision="I64">
					<dim>1</dim>
				</port>
			</output>
		</layer>
		<layer id="118" name="__module.model.layers.0.self_attn/aten::size/ShapeOf_5" type="ShapeOf" version="opset3">
			<data output_type="i64" />
			<input>
				<port id="0" precision="FP32">
					<dim>-1</dim>
					<dim>4</dim>
					<dim>-1</dim>
					<dim>64</dim>
				</port>
			</input>
			<output>
				<port id="1" precision="I64">
					<dim>4</dim>
				</port>
			</output>
		</layer>
		<layer id="119" name="__module.model.layers.0.self_attn/aten::size/Constant_5" type="Const" version="opset1">
			<data element_type="i32" shape="" offset="0" size="4" />
			<output>
				<port id="0" precision="I32" />
			</output>
		</layer>
		<layer id="120" name="__module.model.layers.0.self_attn/aten::size/Gather_5" type="Gather" version="opset8">
			<data batch_dims="0" />
			<input>
				<port id="0" precision="I64">
					<dim>4</dim>
				</port>
				<port id="1" precision="I64" />
				<port id="2" precision="I32" />
			</input>
			<output>
				<port id="3" precision="I64" names="353,358" />
			</output>
		</layer>
		<layer id="121" name="__module.model.layers.0.self_attn/aten::floor_divide/Divide_3" type="Divide" version="opset1">
			<data auto_broadcast="numpy" m_pythondiv="true" />
			<input>
				<port id="0" precision="I64" />
				<port id="1" precision="I64" />
			</input>
			<output>
				<port id="2" precision="I64" />
			</output>
		</layer>
		<layer id="122" name="__module.model.layers.0.self_attn/aten::floor_divide/Floor_3" type="Floor" version="opset1">
			<input>
				<port id="0" precision="I64" />
			</input>
			<output>
				<port id="1" precision="I64" names="355,356,360,361" />
			</output>
		</layer>
		<layer id="123" name="Constant_187329" type="Const" version="opset1">
			<data element_type="i64" shape="1" offset="65648420" size="8" />
			<output>
				<port id="0" precision="I64">
					<dim>1</dim>
				</port>
			</output>
		</layer>
		<layer id="124" name="__module.model.layers.0.self_attn/aten::slice/Unsqueeze_13" type="Reshape" version="opset1">
			<data special_zero="false" />
			<input>
				<port id="0" precision="I64" />
				<port id="1" precision="I64">
					<dim>1</dim>
				</port>
			</input>
			<output>
				<port id="2" precision="I64">
					<dim>1</dim>
				</port>
			</output>
		</layer>
		<layer id="125" name="Constant_104201" type="Const" version="opset1">
			<data element_type="i32" shape="1" offset="0" size="4" />
			<output>
				<port id="0" precision="I32">
					<dim>1</dim>
				</port>
			</output>
		</layer>
		<layer id="126" name="ScatterUpdate_104204" type="ScatterUpdate" version="opset3">
			<input>
				<port id="0" precision="I64">
					<dim>4</dim>
				</port>
				<port id="1" precision="I64">
					<dim>1</dim>
				</port>
				<port id="2" precision="I64">
					<dim>1</dim>
				</port>
				<port id="3" precision="I32">
					<dim>1</dim>
				</port>
			</input>
			<output>
				<port id="4" precision="I64">
					<dim>4</dim>
				</port>
			</output>
		</layer>
		<layer id="127" name="Constant_104207" type="Const" version="opset1">
			<data element_type="i64" shape="4" offset="69849124" size="32" />
			<output>
				<port id="0" precision="I64">
					<dim>4</dim>
				</port>
			</output>
		</layer>
		<layer id="128" name="Constant_104210" type="Const" version="opset1">
			<data element_type="i64" shape="4" offset="69849156" size="32" />
			<output>
				<port id="0" precision="I64">
					<dim>4</dim>
				</port>
			</output>
		</layer>
		<layer id="129" name="__module.model.layers.0.self_attn/aten::slice/Slice_2" type="StridedSlice" version="opset1">
			<data begin_mask="1, 1, 1, 0" end_mask="1, 1, 1, 0" new_axis_mask="" shrink_axis_mask="" ellipsis_mask="" />
			<input>
				<port id="0" precision="FP32">
					<dim>-1</dim>
					<dim>4</dim>
					<dim>-1</dim>
					<dim>64</dim>
				</port>
				<port id="1" precision="I64">
					<dim>4</dim>
				</port>
				<port id="2" precision="I64">
					<dim>4</dim>
				</port>
				<port id="3" precision="I64">
					<dim>4</dim>
				</port>
			</input>
			<output>
				<port id="4" precision="FP32" names="362,x2.3">
					<dim>-1</dim>
					<dim>4</dim>
					<dim>-1</dim>
					<dim>32</dim>
				</port>
			</output>
		</layer>
		<layer id="130" name="Constant_119396" type="Const" version="opset1">
			<data element_type="f32" shape="1, 1, 1, 1" offset="69849188" size="4" />
			<output>
				<port id="0" precision="FP32">
					<dim>1</dim>
					<dim>1</dim>
					<dim>1</dim>
					<dim>1</dim>
				</port>
			</output>
		</layer>
		<layer id="131" name="__module.model.layers.0.self_attn/aten::neg/Multiply_1" type="Multiply" version="opset1">
			<data auto_broadcast="numpy" />
			<input>
				<port id="0" precision="FP32">
					<dim>-1</dim>
					<dim>4</dim>
					<dim>-1</dim>
					<dim>32</dim>
				</port>
				<port id="1" precision="FP32">
					<dim>1</dim>
					<dim>1</dim>
					<dim>1</dim>
					<dim>1</dim>
				</port>
			</input>
			<output>
				<port id="2" precision="FP32" names="363">
					<dim>-1</dim>
					<dim>4</dim>
					<dim>-1</dim>
					<dim>32</dim>
				</port>
			</output>
		</layer>
		<layer id="132" name="Constant_104255" type="Const" version="opset1">
			<data element_type="i64" shape="4" offset="69849076" size="32" />
			<output>
				<port id="0" precision="I64">
					<dim>4</dim>
				</port>
			</output>
		</layer>
		<layer id="133" name="Constant_104260" type="Const" version="opset1">
			<data element_type="i64" shape="4" offset="69849156" size="32" />
			<output>
				<port id="0" precision="I64">
					<dim>4</dim>
				</port>
			</output>
		</layer>
		<layer id="134" name="__module.model.layers.0.self_attn/aten::slice/Slice_3" type="StridedSlice" version="opset1">
			<data begin_mask="1, 1, 1, 0" end_mask="1, 1, 1, 0" new_axis_mask="" shrink_axis_mask="" ellipsis_mask="" />
			<input>
				<port id="0" precision="FP32">
					<dim>-1</dim>
					<dim>4</dim>
					<dim>-1</dim>
					<dim>64</dim>
				</port>
				<port id="1" precision="I64">
					<dim>4</dim>
				</port>
				<port id="2" precision="I64">
					<dim>4</dim>
				</port>
				<port id="3" precision="I64">
					<dim>4</dim>
				</port>
			</input>
			<output>
				<port id="4" precision="FP32" names="357">
					<dim>-1</dim>
					<dim>4</dim>
					<dim>-1</dim>
					<dim>32</dim>
				</port>
			</output>
		</layer>
		<layer id="135" name="__module.model.layers.0.self_attn/aten::cat/Concat_1" type="Concat" version="opset1">
			<data axis="-1" />
			<input>
				<port id="0" precision="FP32">
					<dim>-1</dim>
					<dim>4</dim>
					<dim>-1</dim>
					<dim>32</dim>
				</port>
				<port id="1" precision="FP32">
					<dim>-1</dim>
					<dim>4</dim>
					<dim>-1</dim>
					<dim>32</dim>
				</port>
			</input>
			<output>
				<port id="2" precision="FP32" names="365">
					<dim>-1</dim>
					<dim>4</dim>
					<dim>-1</dim>
					<dim>64</dim>
				</port>
			</output>
		</layer>
		<layer id="136" name="__module.model.layers.0.self_attn/aten::mul/Multiply_3" type="Multiply" version="opset1">
			<data auto_broadcast="numpy" />
			<input>
				<port id="0" precision="FP32">
					<dim>-1</dim>
					<dim>4</dim>
					<dim>-1</dim>
					<dim>64</dim>
				</port>
				<port id="1" precision="FP32">
					<dim>-1</dim>
					<dim>1</dim>
					<dim>-1</dim>
					<dim>64</dim>
				</port>
			</input>
			<output>
				<port id="2" precision="FP32" names="366">
					<dim>-1</dim>
					<dim>4</dim>
					<dim>-1</dim>
					<dim>64</dim>
				</port>
			</output>
		</layer>
		<layer id="137" name="__module.model.layers.0.self_attn/aten::add/Add_1" type="Add" version="opset1">
			<data auto_broadcast="numpy" />
			<input>
				<port id="0" precision="FP32">
					<dim>-1</dim>
					<dim>4</dim>
					<dim>-1</dim>
					<dim>64</dim>
				</port>
				<port id="1" precision="FP32">
					<dim>-1</dim>
					<dim>4</dim>
					<dim>-1</dim>
					<dim>64</dim>
				</port>
			</input>
			<output>
				<port id="2" precision="FP32" names="367,key_states.5">
					<dim>-1</dim>
					<dim>4</dim>
					<dim>-1</dim>
					<dim>64</dim>
				</port>
			</output>
		</layer>
		<layer id="138" name="__module.model.layers.0.self_attn/aten::cat/Concat_2" type="Concat" version="opset1">
			<data axis="-2" />
			<input>
				<port id="0" precision="FP32">
					<dim>-1</dim>
					<dim>4</dim>
					<dim>-1</dim>
					<dim>64</dim>
				</port>
				<port id="1" precision="FP32">
					<dim>-1</dim>
					<dim>4</dim>
					<dim>-1</dim>
					<dim>64</dim>
				</port>
			</input>
			<output>
				<port id="2" precision="FP32" names="present.0.key">
					<dim>-1</dim>
					<dim>4</dim>
					<dim>-1</dim>
					<dim>64</dim>
				</port>
			</output>
		</layer>
		<layer id="139" name="169" type="Const" version="opset1">
			<data element_type="i64" shape="" offset="69849116" size="8" />
			<output>
				<port id="0" precision="I64" names="169" />
			</output>
		</layer>
		<layer id="140" name="__module.model.layers.0.self_attn/aten::unsqueeze/Unsqueeze_2" type="Unsqueeze" version="opset1">
			<input>
				<port id="0" precision="FP32">
					<dim>-1</dim>
					<dim>4</dim>
					<dim>-1</dim>
					<dim>64</dim>
				</port>
				<port id="1" precision="I64" />
			</input>
			<output>
				<port id="2" precision="FP32" names="382,383,384">
					<dim>-1</dim>
					<dim>4</dim>
					<dim>1</dim>
					<dim>-1</dim>
					<dim>64</dim>
				</port>
			</output>
		</layer>
		<layer id="141" name="ShapeOf_123693" type="ShapeOf" version="opset3">
			<data output_type="i64" />
			<input>
				<port id="0" precision="FP32">
					<dim>-1</dim>
					<dim>4</dim>
					<dim>-1</dim>
					<dim>64</dim>
				</port>
			</input>
			<output>
				<port id="1" precision="I64">
					<dim>4</dim>
				</port>
			</output>
		</layer>
		<layer id="142" name="Constant_123694" type="Const" version="opset1">
			<data element_type="i64" shape="1" offset="4" size="8" />
			<output>
				<port id="0" precision="I64">
					<dim>1</dim>
				</port>
			</output>
		</layer>
		<layer id="143" name="Constant_123695" type="Const" version="opset1">
			<data element_type="i64" shape="" offset="4" size="8" />
			<output>
				<port id="0" precision="I64" />
			</output>
		</layer>
		<layer id="144" name="Gather_123696" type="Gather" version="opset8">
			<data batch_dims="0" />
			<input>
				<port id="0" precision="I64">
					<dim>4</dim>
				</port>
				<port id="1" precision="I64">
					<dim>1</dim>
				</port>
				<port id="2" precision="I64" />
			</input>
			<output>
				<port id="3" precision="I64" names="375">
					<dim>1</dim>
				</port>
			</output>
		</layer>
		<layer id="145" name="__module.model.layers.0.self_attn/aten::size/ShapeOf_6" type="ShapeOf" version="opset3">
			<data output_type="i64" />
			<input>
				<port id="0" precision="FP32">
					<dim>-1</dim>
					<dim>4</dim>
					<dim>-1</dim>
					<dim>64</dim>
				</port>
			</input>
			<output>
				<port id="1" precision="I64">
					<dim>4</dim>
				</port>
			</output>
		</layer>
		<layer id="146" name="Constant_125810" type="Const" version="opset1">
			<data element_type="i64" shape="1" offset="69849056" size="8" />
			<output>
				<port id="0" precision="I64">
					<dim>1</dim>
				</port>
			</output>
		</layer>
		<layer id="147" name="__module.model.layers.0.self_attn/aten::size/Constant_7" type="Const" version="opset1">
			<data element_type="i32" shape="" offset="0" size="4" />
			<output>
				<port id="0" precision="I32" />
			</output>
		</layer>
		<layer id="148" name="__module.model.layers.0.self_attn/aten::size/Gather_7" type="Gather" version="opset8">
			<data batch_dims="0" />
			<input>
				<port id="0" precision="I64">
					<dim>4</dim>
				</port>
				<port id="1" precision="I64">
					<dim>1</dim>
				</port>
				<port id="2" precision="I32" />
			</input>
			<output>
				<port id="3" precision="I64" names="376">
					<dim>1</dim>
				</port>
			</output>
		</layer>
		<layer id="149" name="Constant_97118" type="Const" version="opset1">
			<data element_type="i64" shape="1" offset="70374280" size="8" />
			<output>
				<port id="0" precision="I64">
					<dim>1</dim>
				</port>
			</output>
		</layer>
		<layer id="150" name="Constant_101134" type="Const" version="opset1">
			<data element_type="i64" shape="2" offset="70374288" size="16" />
			<output>
				<port id="0" precision="I64">
					<dim>2</dim>
				</port>
			</output>
		</layer>
		<layer id="151" name="Constant_101135" type="Const" version="opset1">
			<data element_type="i64" shape="" offset="4" size="8" />
			<output>
				<port id="0" precision="I64" />
			</output>
		</layer>
		<layer id="152" name="Gather_101136" type="Gather" version="opset8">
			<data batch_dims="0" />
			<input>
				<port id="0" precision="I64">
					<dim>4</dim>
				</port>
				<port id="1" precision="I64">
					<dim>2</dim>
				</port>
				<port id="2" precision="I64" />
			</input>
			<output>
				<port id="3" precision="I64">
					<dim>2</dim>
				</port>
			</output>
		</layer>
		<layer id="153" name="__module.model.layers.0.self_attn/prim::ListConstruct/Concat_2" type="Concat" version="opset1">
			<data axis="0" />
			<input>
				<port id="0" precision="I64">
					<dim>1</dim>
				</port>
				<port id="1" precision="I64">
					<dim>1</dim>
				</port>
				<port id="2" precision="I64">
					<dim>1</dim>
				</port>
				<port id="3" precision="I64">
					<dim>2</dim>
				</port>
			</input>
			<output>
				<port id="4" precision="I64" names="385">
					<dim>5</dim>
				</port>
			</output>
		</layer>
		<layer id="154" name="__module.model.layers.0.self_attn/aten::expand/Broadcast" type="Broadcast" version="opset3">
			<data mode="bidirectional" />
			<input>
				<port id="0" precision="FP32">
					<dim>-1</dim>
					<dim>4</dim>
					<dim>1</dim>
					<dim>-1</dim>
					<dim>64</dim>
				</port>
				<port id="1" precision="I64">
					<dim>5</dim>
				</port>
			</input>
			<output>
				<port id="2" precision="FP32" names="386,hidden_states.11">
					<dim>-1</dim>
					<dim>4</dim>
					<dim>8</dim>
					<dim>-1</dim>
					<dim>64</dim>
				</port>
			</output>
		</layer>
		<layer id="155" name="Constant_125621" type="Const" version="opset1">
			<data element_type="i64" shape="4" offset="70374304" size="32" />
			<output>
				<port id="0" precision="I64">
					<dim>4</dim>
				</port>
			</output>
		</layer>
		<layer id="156" name="__module.model.layers.0.self_attn/aten::reshape/Reshape" type="Reshape" version="opset1">
			<data special_zero="true" />
			<input>
				<port id="0" precision="FP32">
					<dim>-1</dim>
					<dim>4</dim>
					<dim>8</dim>
					<dim>-1</dim>
					<dim>64</dim>
				</port>
				<port id="1" precision="I64">
					<dim>4</dim>
				</port>
			</input>
			<output>
				<port id="2" precision="FP32" names="390,key_states.7">
					<dim>-1</dim>
					<dim>32</dim>
					<dim>-1</dim>
					<dim>64</dim>
				</port>
			</output>
		</layer>
		<layer id="157" name="ReadValue_144292" type="ReadValue" version="opset6">
			<data variable_id="past_key_values.0.valuepresent.0.value" variable_type="f32" variable_shape="?,4,?,64" />
			<input>
				<port id="0" precision="FP32">
					<dim>-1</dim>
					<dim>4</dim>
					<dim>0</dim>
					<dim>64</dim>
				</port>
			</input>
			<output>
				<port id="1" precision="FP32" names="past_key_values.0.value">
					<dim>-1</dim>
					<dim>4</dim>
					<dim>-1</dim>
					<dim>64</dim>
				</port>
			</output>
		</layer>
		<layer id="158" name="Constant_140522" type="Const" version="opset1">
			<data element_type="i64" shape="" offset="4" size="8" />
			<output>
				<port id="0" precision="I64" />
			</output>
		</layer>
		<layer id="159" name="Gather_140523" type="Gather" version="opset8">
			<data batch_dims="0" />
			<input>
				<port id="0" precision="FP32">
					<dim>-1</dim>
					<dim>4</dim>
					<dim>-1</dim>
					<dim>64</dim>
				</port>
				<port id="1" precision="I32">
					<dim>-1</dim>
				</port>
				<port id="2" precision="I64" />
			</input>
			<output>
				<port id="3" precision="FP32">
					<dim>-1</dim>
					<dim>4</dim>
					<dim>-1</dim>
					<dim>64</dim>
				</port>
			</output>
		</layer>
		<layer id="160" name="self.model.layers.0.self_attn.v_proj.weight" type="Const" version="opset1">
			<data element_type="u8" shape="256, 2048" offset="70374336" size="524288" />
			<output>
				<port id="0" precision="U8">
					<dim>256</dim>
					<dim>2048</dim>
				</port>
			</output>
		</layer>
		<layer id="161" name="Convert_152392" type="Convert" version="opset1">
			<data destination_type="f16" />
			<input>
				<port id="0" precision="U8">
					<dim>256</dim>
					<dim>2048</dim>
				</port>
			</input>
			<output>
				<port id="1" precision="FP16">
					<dim>256</dim>
					<dim>2048</dim>
				</port>
			</output>
		</layer>
		<layer id="162" name="self.model.layers.0.self_attn.v_proj.weight/zero_point" type="Const" version="opset1">
			<data element_type="u8" shape="256, 1" offset="70898624" size="256" />
			<output>
				<port id="0" precision="U8">
					<dim>256</dim>
					<dim>1</dim>
				</port>
			</output>
		</layer>
		<layer id="163" name="Convert_152395" type="Convert" version="opset1">
			<data destination_type="f16" />
			<input>
				<port id="0" precision="U8">
					<dim>256</dim>
					<dim>1</dim>
				</port>
			</input>
			<output>
				<port id="1" precision="FP16">
					<dim>256</dim>
					<dim>1</dim>
				</port>
			</output>
		</layer>
		<layer id="164" name="self.model.layers.0.self_attn.v_proj.weight/zero_point/subtract" type="Subtract" version="opset1">
			<data auto_broadcast="numpy" />
			<input>
				<port id="0" precision="FP16">
					<dim>256</dim>
					<dim>2048</dim>
				</port>
				<port id="1" precision="FP16">
					<dim>256</dim>
					<dim>1</dim>
				</port>
			</input>
			<output>
				<port id="2" precision="FP16">
					<dim>256</dim>
					<dim>2048</dim>
				</port>
			</output>
		</layer>
		<layer id="165" name="self.model.layers.0.self_attn.v_proj.weight/scale" type="Const" version="opset1">
			<data element_type="f16" shape="256, 1" offset="70898880" size="512" />
			<output>
				<port id="0" precision="FP16">
					<dim>256</dim>
					<dim>1</dim>
				</port>
			</output>
		</layer>
		<layer id="166" name="self.model.layers.0.self_attn.v_proj.weight/fq_weights_1" type="Multiply" version="opset1">
			<data auto_broadcast="numpy" />
			<input>
				<port id="0" precision="FP16">
					<dim>256</dim>
					<dim>2048</dim>
				</port>
				<port id="1" precision="FP16">
					<dim>256</dim>
					<dim>1</dim>
				</port>
			</input>
			<output>
				<port id="2" precision="FP16">
					<dim>256</dim>
					<dim>2048</dim>
				</port>
			</output>
		</layer>
		<layer id="167" name="self.model.layers.0.self_attn.v_proj.weight/fq_weights_1/convert" type="Convert" version="opset1">
			<data destination_type="f32" />
			<input>
				<port id="0" precision="FP16">
					<dim>256</dim>
					<dim>2048</dim>
				</port>
			</input>
			<output>
				<port id="1" precision="FP32">
					<dim>256</dim>
					<dim>2048</dim>
				</port>
			</output>
		</layer>
		<layer id="168" name="__module.model.layers.0.self_attn.v_proj/aten::linear/MatMul" type="MatMul" version="opset1">
			<data transpose_a="false" transpose_b="true" />
			<input>
				<port id="0" precision="FP32">
					<dim>-1</dim>
					<dim>-1</dim>
					<dim>2048</dim>
				</port>
				<port id="1" precision="FP32">
					<dim>256</dim>
					<dim>2048</dim>
				</port>
			</input>
			<output>
				<port id="2" precision="FP32" names="299,value_states.1">
					<dim>-1</dim>
					<dim>-1</dim>
					<dim>256</dim>
				</port>
			</output>
		</layer>
		<layer id="169" name="Constant_125622" type="Const" version="opset1">
			<data element_type="i64" shape="4" offset="70374248" size="32" />
			<output>
				<port id="0" precision="I64">
					<dim>4</dim>
				</port>
			</output>
		</layer>
		<layer id="170" name="__module.model.layers.0.self_attn/aten::view/Reshape_2" type="Reshape" version="opset1">
			<data special_zero="true" />
			<input>
				<port id="0" precision="FP32">
					<dim>-1</dim>
					<dim>-1</dim>
					<dim>256</dim>
				</port>
				<port id="1" precision="I64">
					<dim>4</dim>
				</port>
			</input>
			<output>
				<port id="2" precision="FP32" names="307">
					<dim>-1</dim>
					<dim>-1</dim>
					<dim>4</dim>
					<dim>64</dim>
				</port>
			</output>
		</layer>
		<layer id="171" name="__module.model.layers.0.self_attn/aten::transpose/ScatterElementsUpdate_2" type="Const" version="opset1">
			<data element_type="i32" shape="4" offset="69848912" size="16" />
			<output>
				<port id="0" precision="I32">
					<dim>4</dim>
				</port>
			</output>
		</layer>
		<layer id="172" name="__module.model.layers.0.self_attn/aten::transpose/Transpose_2" type="Transpose" version="opset1">
			<input>
				<port id="0" precision="FP32">
					<dim>-1</dim>
					<dim>-1</dim>
					<dim>4</dim>
					<dim>64</dim>
				</port>
				<port id="1" precision="I32">
					<dim>4</dim>
				</port>
			</input>
			<output>
				<port id="2" precision="FP32" names="308">
					<dim>-1</dim>
					<dim>4</dim>
					<dim>-1</dim>
					<dim>64</dim>
				</port>
			</output>
		</layer>
		<layer id="173" name="__module.model.layers.0.self_attn/aten::cat/Concat_3" type="Concat" version="opset1">
			<data axis="-2" />
			<input>
				<port id="0" precision="FP32">
					<dim>-1</dim>
					<dim>4</dim>
					<dim>-1</dim>
					<dim>64</dim>
				</port>
				<port id="1" precision="FP32">
					<dim>-1</dim>
					<dim>4</dim>
					<dim>-1</dim>
					<dim>64</dim>
				</port>
			</input>
			<output>
				<port id="2" precision="FP32" names="present.0.value">
					<dim>-1</dim>
					<dim>4</dim>
					<dim>-1</dim>
					<dim>64</dim>
				</port>
			</output>
		</layer>
		<layer id="174" name="__module.model.layers.0.self_attn/aten::unsqueeze/Unsqueeze_3" type="Unsqueeze" version="opset1">
			<input>
				<port id="0" precision="FP32">
					<dim>-1</dim>
					<dim>4</dim>
					<dim>-1</dim>
					<dim>64</dim>
				</port>
				<port id="1" precision="I64" />
			</input>
			<output>
				<port id="2" precision="FP32" names="398,399,400">
					<dim>-1</dim>
					<dim>4</dim>
					<dim>1</dim>
					<dim>-1</dim>
					<dim>64</dim>
				</port>
			</output>
		</layer>
		<layer id="175" name="ReadValue_144348" type="ReadValue" version="opset6">
			<data variable_id="past_key_values.21.valuepresent.21.value" variable_type="f32" variable_shape="?,4,?,64" />
			<input>
				<port id="0" precision="FP32">
					<dim>-1</dim>
					<dim>4</dim>
					<dim>0</dim>
					<dim>64</dim>
				</port>
			</input>
			<output>
				<port id="1" precision="FP32" names="past_key_values.21.value">
					<dim>-1</dim>
					<dim>4</dim>
					<dim>-1</dim>
					<dim>64</dim>
				</port>
			</output>
		</layer>
		<layer id="176" name="Constant_140648" type="Const" version="opset1">
			<data element_type="i64" shape="" offset="4" size="8" />
			<output>
				<port id="0" precision="I64" />
			</output>
		</layer>
		<layer id="177" name="Gather_140649" type="Gather" version="opset8">
			<data batch_dims="0" />
			<input>
				<port id="0" precision="FP32">
					<dim>-1</dim>
					<dim>4</dim>
					<dim>-1</dim>
					<dim>64</dim>
				</port>
				<port id="1" precision="I32">
					<dim>-1</dim>
				</port>
				<port id="2" precision="I64" />
			</input>
			<output>
				<port id="3" precision="FP32">
					<dim>-1</dim>
					<dim>4</dim>
					<dim>-1</dim>
					<dim>64</dim>
				</port>
			</output>
		</layer>
		<layer id="178" name="ShapeOf_123701" type="ShapeOf" version="opset3">
			<data output_type="i64" />
			<input>
				<port id="0" precision="FP32">
					<dim>-1</dim>
					<dim>4</dim>
					<dim>-1</dim>
					<dim>64</dim>
				</port>
			</input>
			<output>
				<port id="1" precision="I64">
					<dim>4</dim>
				</port>
			</output>
		</layer>
		<layer id="179" name="Constant_123702" type="Const" version="opset1">
			<data element_type="i64" shape="1" offset="4" size="8" />
			<output>
				<port id="0" precision="I64">
					<dim>1</dim>
				</port>
			</output>
		</layer>
		<layer id="180" name="Constant_123703" type="Const" version="opset1">
			<data element_type="i64" shape="" offset="4" size="8" />
			<output>
				<port id="0" precision="I64" />
			</output>
		</layer>
		<layer id="181" name="Gather_123704" type="Gather" version="opset8">
			<data batch_dims="0" />
			<input>
				<port id="0" precision="I64">
					<dim>4</dim>
				</port>
				<port id="1" precision="I64">
					<dim>1</dim>
				</port>
				<port id="2" precision="I64" />
			</input>
			<output>
				<port id="3" precision="I64" names="1111,1291,1471,1651,1831,2011,2191,2371,245,2551,2731,2911,3091,3271,3451,3631,3811,391,3991,4171,571,751,931">
					<dim>1</dim>
				</port>
			</output>
		</layer>
		<layer id="182" name="__module.model.layers.0.self_attn/aten::size/ShapeOf_10" type="ShapeOf" version="opset3">
			<data output_type="i64" />
			<input>
				<port id="0" precision="FP32">
					<dim>-1</dim>
					<dim>4</dim>
					<dim>-1</dim>
					<dim>64</dim>
				</port>
			</input>
			<output>
				<port id="1" precision="I64">
					<dim>4</dim>
				</port>
			</output>
		</layer>
		<layer id="183" name="Constant_125813" type="Const" version="opset1">
			<data element_type="i64" shape="1" offset="69849056" size="8" />
			<output>
				<port id="0" precision="I64">
					<dim>1</dim>
				</port>
			</output>
		</layer>
		<layer id="184" name="__module.model.layers.0.self_attn/aten::size/Constant_11" type="Const" version="opset1">
			<data element_type="i32" shape="" offset="0" size="4" />
			<output>
				<port id="0" precision="I32" />
			</output>
		</layer>
		<layer id="185" name="__module.model.layers.0.self_attn/aten::size/Gather_11" type="Gather" version="opset8">
			<data batch_dims="0" />
			<input>
				<port id="0" precision="I64">
					<dim>4</dim>
				</port>
				<port id="1" precision="I64">
					<dim>1</dim>
				</port>
				<port id="2" precision="I32" />
			</input>
			<output>
				<port id="3" precision="I64" names="392">
					<dim>1</dim>
				</port>
			</output>
		</layer>
		<layer id="186" name="Constant_97136" type="Const" version="opset1">
			<data element_type="i64" shape="1" offset="70374280" size="8" />
			<output>
				<port id="0" precision="I64">
					<dim>1</dim>
				</port>
			</output>
		</layer>
		<layer id="187" name="Constant_101144" type="Const" version="opset1">
			<data element_type="i64" shape="2" offset="70374288" size="16" />
			<output>
				<port id="0" precision="I64">
					<dim>2</dim>
				</port>
			</output>
		</layer>
		<layer id="188" name="Constant_101145" type="Const" version="opset1">
			<data element_type="i64" shape="" offset="4" size="8" />
			<output>
				<port id="0" precision="I64" />
			</output>
		</layer>
		<layer id="189" name="Gather_101146" type="Gather" version="opset8">
			<data batch_dims="0" />
			<input>
				<port id="0" precision="I64">
					<dim>4</dim>
				</port>
				<port id="1" precision="I64">
					<dim>2</dim>
				</port>
				<port id="2" precision="I64" />
			</input>
			<output>
				<port id="3" precision="I64">
					<dim>2</dim>
				</port>
			</output>
		</layer>
		<layer id="190" name="__module.model.layers.0.self_attn/prim::ListConstruct/Concat_5" type="Concat" version="opset1">
			<data axis="0" />
			<input>
				<port id="0" precision="I64">
					<dim>1</dim>
				</port>
				<port id="1" precision="I64">
					<dim>1</dim>
				</port>
				<port id="2" precision="I64">
					<dim>1</dim>
				</port>
				<port id="3" precision="I64">
					<dim>2</dim>
				</port>
			</input>
			<output>
				<port id="4" precision="I64" names="401">
					<dim>5</dim>
				</port>
			</output>
		</layer>
		<layer id="191" name="__module.model.layers.0.self_attn/aten::expand/Broadcast_1" type="Broadcast" version="opset3">
			<data mode="bidirectional" />
			<input>
				<port id="0" precision="FP32">
					<dim>-1</dim>
					<dim>4</dim>
					<dim>1</dim>
					<dim>-1</dim>
					<dim>64</dim>
				</port>
				<port id="1" precision="I64">
					<dim>5</dim>
				</port>
			</input>
			<output>
				<port id="2" precision="FP32" names="402,hidden_states.15">
					<dim>-1</dim>
					<dim>4</dim>
					<dim>8</dim>
					<dim>-1</dim>
					<dim>64</dim>
				</port>
			</output>
		</layer>
		<layer id="192" name="Constant_125623" type="Const" version="opset1">
			<data element_type="i64" shape="4" offset="70374304" size="32" />
			<output>
				<port id="0" precision="I64">
					<dim>4</dim>
				</port>
			</output>
		</layer>
		<layer id="193" name="__module.model.layers.0.self_attn/aten::reshape/Reshape_1" type="Reshape" version="opset1">
			<data special_zero="true" />
			<input>
				<port id="0" precision="FP32">
					<dim>-1</dim>
					<dim>4</dim>
					<dim>8</dim>
					<dim>-1</dim>
					<dim>64</dim>
				</port>
				<port id="1" precision="I64">
					<dim>4</dim>
				</port>
			</input>
			<output>
				<port id="2" precision="FP32" names="406">
					<dim>-1</dim>
					<dim>32</dim>
					<dim>-1</dim>
					<dim>64</dim>
				</port>
			</output>
		</layer>
		<layer id="194" name="__module.model/aten::triu/Constant" type="Const" version="opset1">
			<data element_type="i32" shape="" offset="0" size="4" />
			<output>
				<port id="0" precision="I32" />
			</output>
		</layer>
		<layer id="195" name="Multiply_114440" type="Const" version="opset1">
			<data element_type="f32" shape="" offset="70899392" size="4" />
			<output>
				<port id="0" precision="FP32" />
			</output>
		</layer>
		<layer id="196" name="Constant_114445" type="Const" version="opset1">
			<data element_type="i64" shape="2" offset="70899396" size="16" />
			<output>
				<port id="0" precision="I64">
					<dim>2</dim>
				</port>
			</output>
		</layer>
		<layer id="197" name="Constant_123710" type="Const" version="opset1">
			<data element_type="i64" shape="" offset="69849056" size="8" />
			<output>
				<port id="0" precision="I64" />
			</output>
		</layer>
		<layer id="198" name="Constant_123711" type="Const" version="opset1">
			<data element_type="i64" shape="" offset="4" size="8" />
			<output>
				<port id="0" precision="I64" />
			</output>
		</layer>
		<layer id="199" name="Gather_123712" type="Gather" version="opset8">
			<data batch_dims="0" />
			<input>
				<port id="0" precision="I64">
					<dim>2</dim>
				</port>
				<port id="1" precision="I64" />
				<port id="2" precision="I64" />
			</input>
			<output>
				<port id="3" precision="I64" names="225,230" />
			</output>
		</layer>
		<layer id="200" name="Constant_187330" type="Const" version="opset1">
			<data element_type="i64" shape="1" offset="65648420" size="8" />
			<output>
				<port id="0" precision="I64">
					<dim>1</dim>
				</port>
			</output>
		</layer>
		<layer id="201" name="Reshape_123715" type="Reshape" version="opset1">
			<data special_zero="false" />
			<input>
				<port id="0" precision="I64" />
				<port id="1" precision="I64">
					<dim>1</dim>
				</port>
			</input>
			<output>
				<port id="2" precision="I64">
					<dim>1</dim>
				</port>
			</output>
		</layer>
		<layer id="202" name="ShapeOf_123717" type="ShapeOf" version="opset3">
			<data output_type="i64" />
			<input>
				<port id="0" precision="I64">
					<dim>-1</dim>
					<dim>-1</dim>
				</port>
			</input>
			<output>
				<port id="1" precision="I64">
					<dim>2</dim>
				</port>
			</output>
		</layer>
		<layer id="203" name="Constant_123718" type="Const" version="opset1">
			<data element_type="i64" shape="" offset="69849056" size="8" />
			<output>
				<port id="0" precision="I64" />
			</output>
		</layer>
		<layer id="204" name="Constant_123719" type="Const" version="opset1">
			<data element_type="i64" shape="" offset="4" size="8" />
			<output>
				<port id="0" precision="I64" />
			</output>
		</layer>
		<layer id="205" name="Gather_123720" type="Gather" version="opset8">
			<data batch_dims="0" />
			<input>
				<port id="0" precision="I64">
					<dim>2</dim>
				</port>
				<port id="1" precision="I64" />
				<port id="2" precision="I64" />
			</input>
			<output>
				<port id="3" precision="I64" names="231,249" />
			</output>
		</layer>
		<layer id="206" name="Constant_187331" type="Const" version="opset1">
			<data element_type="i64" shape="1" offset="65648420" size="8" />
			<output>
				<port id="0" precision="I64">
					<dim>1</dim>
				</port>
			</output>
		</layer>
		<layer id="207" name="__module.model/aten::slice/Unsqueeze_37" type="Reshape" version="opset1">
			<data special_zero="false" />
			<input>
				<port id="0" precision="I64" />
				<port id="1" precision="I64">
					<dim>1</dim>
				</port>
			</input>
			<output>
				<port id="2" precision="I64">
					<dim>1</dim>
				</port>
			</output>
		</layer>
		<layer id="208" name="__module.model/prim::ListConstruct/Concat" type="Concat" version="opset1">
			<data axis="0" />
			<input>
				<port id="0" precision="I64">
					<dim>1</dim>
				</port>
				<port id="1" precision="I64">
					<dim>1</dim>
				</port>
			</input>
			<output>
				<port id="2" precision="I64" names="232">
					<dim>2</dim>
				</port>
			</output>
		</layer>
		<layer id="209" name="Maximum_114446" type="Maximum" version="opset1">
			<data auto_broadcast="numpy" />
			<input>
				<port id="0" precision="I64">
					<dim>2</dim>
				</port>
				<port id="1" precision="I64">
					<dim>2</dim>
				</port>
			</input>
			<output>
				<port id="2" precision="I64">
					<dim>2</dim>
				</port>
			</output>
		</layer>
		<layer id="210" name="__module.model/aten::mul/Multiply" type="Broadcast" version="opset3">
			<data mode="numpy" />
			<input>
				<port id="0" precision="FP32" />
				<port id="1" precision="I64">
					<dim>2</dim>
				</port>
			</input>
			<output>
				<port id="2" precision="FP32" names="234">
					<dim>-1</dim>
					<dim>-1</dim>
				</port>
			</output>
		</layer>
		<layer id="211" name="ShapeOf_123725" type="ShapeOf" version="opset3">
			<data output_type="i32" />
			<input>
				<port id="0" precision="FP32">
					<dim>-1</dim>
					<dim>-1</dim>
				</port>
			</input>
			<output>
				<port id="1" precision="I32">
					<dim>2</dim>
				</port>
			</output>
		</layer>
		<layer id="212" name="Constant_123726" type="Const" version="opset1">
			<data element_type="i64" shape="" offset="69849056" size="8" />
			<output>
				<port id="0" precision="I64" />
			</output>
		</layer>
		<layer id="213" name="Constant_123727" type="Const" version="opset1">
			<data element_type="i64" shape="" offset="4" size="8" />
			<output>
				<port id="0" precision="I64" />
			</output>
		</layer>
		<layer id="214" name="Gather_123728" type="Gather" version="opset8">
			<data batch_dims="0" />
			<input>
				<port id="0" precision="I32">
					<dim>2</dim>
				</port>
				<port id="1" precision="I64" />
				<port id="2" precision="I64" />
			</input>
			<output>
				<port id="3" precision="I32" />
			</output>
		</layer>
		<layer id="215" name="__module.model/aten::triu/Constant_2" type="Const" version="opset1">
			<data element_type="i32" shape="" offset="70899412" size="4" />
			<output>
				<port id="0" precision="I32" />
			</output>
		</layer>
		<layer id="216" name="__module.model/aten::triu/Range" type="Range" version="opset4">
			<data output_type="i32" />
			<input>
				<port id="0" precision="I32" />
				<port id="1" precision="I32" />
				<port id="2" precision="I32" />
			</input>
			<output>
				<port id="3" precision="I32">
					<dim>-1</dim>
				</port>
			</output>
		</layer>
		<layer id="217" name="Constant_123468" type="Const" version="opset1">
			<data element_type="i64" shape="2" offset="70899416" size="16" />
			<output>
				<port id="0" precision="I64">
					<dim>2</dim>
				</port>
			</output>
		</layer>
		<layer id="218" name="__module.model/aten::triu/Unsqueeze" type="Reshape" version="opset1">
			<data special_zero="false" />
			<input>
				<port id="0" precision="I32">
					<dim>-1</dim>
				</port>
				<port id="1" precision="I64">
					<dim>2</dim>
				</port>
			</input>
			<output>
				<port id="2" precision="I32">
					<dim>1</dim>
					<dim>-1</dim>
				</port>
			</output>
		</layer>
		<layer id="219" name="__module.model/aten::triu/Convert" type="Const" version="opset1">
			<data element_type="i32" shape="" offset="70899412" size="4" />
			<output>
				<port id="0" precision="I32" />
			</output>
		</layer>
		<layer id="220" name="Constant_123732" type="Const" version="opset1">
			<data element_type="i64" shape="" offset="4" size="8" />
			<output>
				<port id="0" precision="I64" />
			</output>
		</layer>
		<layer id="221" name="Constant_123733" type="Const" version="opset1">
			<data element_type="i64" shape="" offset="4" size="8" />
			<output>
				<port id="0" precision="I64" />
			</output>
		</layer>
		<layer id="222" name="Gather_123734" type="Gather" version="opset8">
			<data batch_dims="0" />
			<input>
				<port id="0" precision="I32">
					<dim>2</dim>
				</port>
				<port id="1" precision="I64" />
				<port id="2" precision="I64" />
			</input>
			<output>
				<port id="3" precision="I32" />
			</output>
		</layer>
		<layer id="223" name="__module.model/aten::triu/Add" type="Add" version="opset1">
			<data auto_broadcast="numpy" />
			<input>
				<port id="0" precision="I32" />
				<port id="1" precision="I32" />
			</input>
			<output>
				<port id="2" precision="I32" />
			</output>
		</layer>
		<layer id="224" name="__module.model/aten::triu/Range_1" type="Range" version="opset4">
			<data output_type="i32" />
			<input>
				<port id="0" precision="I32" />
				<port id="1" precision="I32" />
				<port id="2" precision="I32" />
			</input>
			<output>
				<port id="3" precision="I32">
					<dim>-1</dim>
				</port>
			</output>
		</layer>
		<layer id="225" name="Constant_123470" type="Const" version="opset1">
			<data element_type="i64" shape="2" offset="70899432" size="16" />
			<output>
				<port id="0" precision="I64">
					<dim>2</dim>
				</port>
			</output>
		</layer>
		<layer id="226" name="__module.model/aten::triu/Unsqueeze_1" type="Reshape" version="opset1">
			<data special_zero="false" />
			<input>
				<port id="0" precision="I32">
					<dim>-1</dim>
				</port>
				<port id="1" precision="I64">
					<dim>2</dim>
				</port>
			</input>
			<output>
				<port id="2" precision="I32">
					<dim>-1</dim>
					<dim>1</dim>
				</port>
			</output>
		</layer>
		<layer id="227" name="__module.model/aten::triu/GreaterEqual" type="GreaterEqual" version="opset1">
			<data auto_broadcast="numpy" />
			<input>
				<port id="0" precision="I32">
					<dim>1</dim>
					<dim>-1</dim>
				</port>
				<port id="1" precision="I32">
					<dim>-1</dim>
					<dim>1</dim>
				</port>
			</input>
			<output>
				<port id="2" precision="BOOL">
					<dim>-1</dim>
					<dim>-1</dim>
				</port>
			</output>
		</layer>
		<layer id="228" name="__module.model/aten::triu/ConvertLike" type="Const" version="opset1">
			<data element_type="f32" shape="" offset="0" size="4" />
			<output>
				<port id="0" precision="FP32" />
			</output>
		</layer>
		<layer id="229" name="__module.model/aten::triu/Select" type="Select" version="opset1">
			<data auto_broadcast="numpy" />
			<input>
				<port id="0" precision="BOOL">
					<dim>-1</dim>
					<dim>-1</dim>
				</port>
				<port id="1" precision="FP32">
					<dim>-1</dim>
					<dim>-1</dim>
				</port>
				<port id="2" precision="FP32" />
			</input>
			<output>
				<port id="3" precision="FP32" names="235_1">
					<dim>-1</dim>
					<dim>-1</dim>
				</port>
			</output>
		</layer>
		<layer id="230" name="__module.model/aten::arange/Constant" type="Const" version="opset1">
			<data element_type="i32" shape="" offset="0" size="4" />
			<output>
				<port id="0" precision="I32" />
			</output>
		</layer>
		<layer id="231" name="__module.model/aten::arange/Constant_1" type="Const" version="opset1">
			<data element_type="i32" shape="" offset="70899412" size="4" />
			<output>
				<port id="0" precision="I32" />
			</output>
		</layer>
		<layer id="232" name="__module.model/aten::arange/Range" type="Range" version="opset4">
			<data output_type="f32" />
			<input>
				<port id="0" precision="I32" />
				<port id="1" precision="I64" />
				<port id="2" precision="I32" />
			</input>
			<output>
				<port id="3" precision="FP32">
					<dim>-1</dim>
				</port>
			</output>
		</layer>
		<layer id="233" name="__module.model/aten::arange/ConvertLike" type="Convert" version="opset1">
			<data destination_type="i64" />
			<input>
				<port id="0" precision="FP32">
					<dim>-1</dim>
				</port>
			</input>
			<output>
				<port id="1" precision="I64" names="236">
					<dim>-1</dim>
				</port>
			</output>
		</layer>
		<layer id="234" name="__module.model/aten::gt/Convert" type="Convert" version="opset1">
			<data destination_type="f32" />
			<input>
				<port id="0" precision="I64">
					<dim>-1</dim>
				</port>
			</input>
			<output>
				<port id="1" precision="FP32">
					<dim>-1</dim>
				</port>
			</output>
		</layer>
		<layer id="235" name="Constant_123738" type="Const" version="opset1">
			<data element_type="i64" shape="" offset="69849116" size="8" />
			<output>
				<port id="0" precision="I64" />
			</output>
		</layer>
		<layer id="236" name="Constant_123739" type="Const" version="opset1">
			<data element_type="i64" shape="" offset="4" size="8" />
			<output>
				<port id="0" precision="I64" />
			</output>
		</layer>
		<layer id="237" name="Gather_123740" type="Gather" version="opset8">
			<data batch_dims="0" />
			<input>
				<port id="0" precision="I64">
					<dim>4</dim>
				</port>
				<port id="1" precision="I64" />
				<port id="2" precision="I64" />
			</input>
			<output>
				<port id="3" precision="I64" names="223" />
			</output>
		</layer>
		<layer id="238" name="__module.model/aten::add/Add" type="Add" version="opset1">
			<data auto_broadcast="numpy" />
			<input>
				<port id="0" precision="I64" />
				<port id="1" precision="I64" />
			</input>
			<output>
				<port id="2" precision="I64" names="227" />
			</output>
		</layer>
		<layer id="239" name="__module.model/aten::arange/Constant_2" type="Const" version="opset1">
			<data element_type="i32" shape="" offset="70899412" size="4" />
			<output>
				<port id="0" precision="I32" />
			</output>
		</layer>
		<layer id="240" name="__module.model/aten::arange/Range_1" type="Range" version="opset4">
			<data output_type="f32" />
			<input>
				<port id="0" precision="I64" />
				<port id="1" precision="I64" />
				<port id="2" precision="I32" />
			</input>
			<output>
				<port id="3" precision="FP32" names="229,cache_position">
					<dim>-1</dim>
				</port>
			</output>
		</layer>
		<layer id="241" name="Constant_177" type="Const" version="opset1">
			<data element_type="i64" shape="2" offset="70899432" size="16" />
			<output>
				<port id="0" precision="I64" names="237">
					<dim>2</dim>
				</port>
			</output>
		</layer>
		<layer id="242" name="__module.model/aten::reshape/Reshape" type="Reshape" version="opset1">
			<data special_zero="false" />
			<input>
				<port id="0" precision="FP32">
					<dim>-1</dim>
				</port>
				<port id="1" precision="I64">
					<dim>2</dim>
				</port>
			</input>
			<output>
				<port id="2" precision="FP32" names="238">
					<dim>-1</dim>
					<dim>1</dim>
				</port>
			</output>
		</layer>
		<layer id="243" name="__module.model/aten::gt/Greater" type="Greater" version="opset1">
			<data auto_broadcast="numpy" />
			<input>
				<port id="0" precision="FP32">
					<dim>-1</dim>
				</port>
				<port id="1" precision="FP32">
					<dim>-1</dim>
					<dim>1</dim>
				</port>
			</input>
			<output>
				<port id="2" precision="BOOL" names="239">
					<dim>-1</dim>
					<dim>-1</dim>
				</port>
			</output>
		</layer>
		<layer id="244" name="__module.model/aten::mul_/ConvertLike" type="Convert" version="opset1">
			<data destination_type="f32" />
			<input>
				<port id="0" precision="BOOL">
					<dim>-1</dim>
					<dim>-1</dim>
				</port>
			</input>
			<output>
				<port id="1" precision="FP32">
					<dim>-1</dim>
					<dim>-1</dim>
				</port>
			</output>
		</layer>
		<layer id="245" name="__module.model/aten::mul_/Multiply" type="Multiply" version="opset1">
			<data auto_broadcast="numpy" />
			<input>
				<port id="0" precision="FP32">
					<dim>-1</dim>
					<dim>-1</dim>
				</port>
				<port id="1" precision="FP32">
					<dim>-1</dim>
					<dim>-1</dim>
				</port>
			</input>
			<output>
				<port id="2" precision="FP32" names="235,causal_mask.1">
					<dim>-1</dim>
					<dim>-1</dim>
				</port>
			</output>
		</layer>
		<layer id="246" name="Constant_123472" type="Const" version="opset1">
			<data element_type="i64" shape="2" offset="70899448" size="16" />
			<output>
				<port id="0" precision="I64">
					<dim>2</dim>
				</port>
			</output>
		</layer>
		<layer id="247" name="__module.model/aten::unsqueeze/Unsqueeze_1" type="Unsqueeze" version="opset1">
			<input>
				<port id="0" precision="FP32">
					<dim>-1</dim>
					<dim>-1</dim>
				</port>
				<port id="1" precision="I64">
					<dim>2</dim>
				</port>
			</input>
			<output>
				<port id="2" precision="FP32" names="242,243,244">
					<dim>1</dim>
					<dim>1</dim>
					<dim>-1</dim>
					<dim>-1</dim>
				</port>
			</output>
		</layer>
		<layer id="248" name="Constant_97153" type="Const" version="opset1">
			<data element_type="i64" shape="1" offset="69849056" size="8" />
			<output>
				<port id="0" precision="I64">
					<dim>1</dim>
				</port>
			</output>
		</layer>
		<layer id="249" name="Constant_97155" type="Const" version="opset1">
			<data element_type="i64" shape="1" offset="69849056" size="8" />
			<output>
				<port id="0" precision="I64">
					<dim>1</dim>
				</port>
			</output>
		</layer>
		<layer id="250" name="Constant_97157" type="Const" version="opset1">
			<data element_type="i64" shape="1" offset="69849056" size="8" />
			<output>
				<port id="0" precision="I64">
					<dim>1</dim>
				</port>
			</output>
		</layer>
		<layer id="251" name="__module.model/prim::ListConstruct/Concat_1" type="Concat" version="opset1">
			<data axis="0" />
			<input>
				<port id="0" precision="I64">
					<dim>1</dim>
				</port>
				<port id="1" precision="I64">
					<dim>1</dim>
				</port>
				<port id="2" precision="I64">
					<dim>1</dim>
				</port>
				<port id="3" precision="I64">
					<dim>1</dim>
				</port>
			</input>
			<output>
				<port id="4" precision="I64" names="246">
					<dim>4</dim>
				</port>
			</output>
		</layer>
		<layer id="252" name="__module.model/aten::expand/Broadcast" type="Broadcast" version="opset3">
			<data mode="bidirectional" />
			<input>
				<port id="0" precision="FP32">
					<dim>1</dim>
					<dim>1</dim>
					<dim>-1</dim>
					<dim>-1</dim>
				</port>
				<port id="1" precision="I64">
					<dim>4</dim>
				</port>
			</input>
			<output>
				<port id="2" precision="FP32" names="247,250,251,252,260,261,262,265_1,266_1,267_1,causal_mask.5">
					<dim>-1</dim>
					<dim>1</dim>
					<dim>-1</dim>
					<dim>-1</dim>
				</port>
			</output>
		</layer>
		<layer id="253" name="Constant_187332" type="Const" version="opset1">
			<data element_type="i64" shape="1" offset="65648420" size="8" />
			<output>
				<port id="0" precision="I64">
					<dim>1</dim>
				</port>
			</output>
		</layer>
		<layer id="254" name="SliceAssign_321/Reshape_3" type="Reshape" version="opset1">
			<data special_zero="false" />
			<input>
				<port id="0" precision="FP32">
					<dim>-1</dim>
					<dim>1</dim>
					<dim>-1</dim>
					<dim>-1</dim>
				</port>
				<port id="1" precision="I64">
					<dim>1</dim>
				</port>
			</input>
			<output>
				<port id="2" precision="FP32">
					<dim>-1</dim>
				</port>
			</output>
		</layer>
		<layer id="255" name="Constant_58500" type="Const" version="opset1">
			<data element_type="i64" shape="" offset="4" size="8" />
			<output>
				<port id="0" precision="I64" />
			</output>
		</layer>
		<layer id="256" name="SliceAssign_321/ShapeOf" type="ShapeOf" version="opset3">
			<data output_type="i64" />
			<input>
				<port id="0" precision="FP32">
					<dim>-1</dim>
					<dim>1</dim>
					<dim>-1</dim>
					<dim>-1</dim>
				</port>
			</input>
			<output>
				<port id="1" precision="I64">
					<dim>4</dim>
				</port>
			</output>
		</layer>
		<layer id="257" name="SliceAssign_321/ReduceProd" type="ReduceProd" version="opset1">
			<data keep_dims="false" />
			<input>
				<port id="0" precision="I64">
					<dim>4</dim>
				</port>
				<port id="1" precision="I64" />
			</input>
			<output>
				<port id="2" precision="I64" />
			</output>
		</layer>
		<layer id="258" name="Constant_58501" type="Const" version="opset1">
			<data element_type="i64" shape="" offset="69849056" size="8" />
			<output>
				<port id="0" precision="I64" />
			</output>
		</layer>
		<layer id="259" name="SliceAssign_321/Range" type="Range" version="opset4">
			<data output_type="i64" />
			<input>
				<port id="0" precision="I64" />
				<port id="1" precision="I64" />
				<port id="2" precision="I64" />
			</input>
			<output>
				<port id="3" precision="I64">
					<dim>-1</dim>
				</port>
			</output>
		</layer>
		<layer id="260" name="SliceAssign_321/Reshape" type="Reshape" version="opset1">
			<data special_zero="false" />
			<input>
				<port id="0" precision="I64">
					<dim>-1</dim>
				</port>
				<port id="1" precision="I64">
					<dim>4</dim>
				</port>
			</input>
			<output>
				<port id="2" precision="I64">
					<dim>-1</dim>
					<dim>1</dim>
					<dim>-1</dim>
					<dim>-1</dim>
				</port>
			</output>
		</layer>
		<layer id="261" name="Constant_104428" type="Const" version="opset1">
			<data element_type="i64" shape="4" offset="69849076" size="32" />
			<output>
				<port id="0" precision="I64">
					<dim>4</dim>
				</port>
			</output>
		</layer>
		<layer id="262" name="Constant_104429" type="Const" version="opset1">
			<data element_type="i64" shape="4" offset="69849076" size="32" />
			<output>
				<port id="0" precision="I64">
					<dim>4</dim>
				</port>
			</output>
		</layer>
		<layer id="263" name="Constant_104425" type="Const" version="opset1">
			<data element_type="i64" shape="1" offset="69849108" size="8" />
			<output>
				<port id="0" precision="I64">
					<dim>1</dim>
				</port>
			</output>
		</layer>
		<layer id="264" name="Constant_104424" type="Const" version="opset1">
			<data element_type="i32" shape="1" offset="0" size="4" />
			<output>
				<port id="0" precision="I32">
					<dim>1</dim>
				</port>
			</output>
		</layer>
		<layer id="265" name="ScatterUpdate_104430" type="ScatterUpdate" version="opset3">
			<input>
				<port id="0" precision="I64">
					<dim>4</dim>
				</port>
				<port id="1" precision="I64">
					<dim>1</dim>
				</port>
				<port id="2" precision="I64">
					<dim>1</dim>
				</port>
				<port id="3" precision="I32">
					<dim>1</dim>
				</port>
			</input>
			<output>
				<port id="4" precision="I64">
					<dim>4</dim>
				</port>
			</output>
		</layer>
		<layer id="266" name="Constant_104433" type="Const" version="opset1">
			<data element_type="i64" shape="4" offset="69849156" size="32" />
			<output>
				<port id="0" precision="I64">
					<dim>4</dim>
				</port>
			</output>
		</layer>
		<layer id="267" name="SliceAssign_321/Slice_2" type="StridedSlice" version="opset1">
			<data begin_mask="1, 1, 1, 0" end_mask="1, 1, 1, 0" new_axis_mask="" shrink_axis_mask="" ellipsis_mask="" />
			<input>
				<port id="0" precision="I64">
					<dim>-1</dim>
					<dim>1</dim>
					<dim>-1</dim>
					<dim>-1</dim>
				</port>
				<port id="1" precision="I64">
					<dim>4</dim>
				</port>
				<port id="2" precision="I64">
					<dim>4</dim>
				</port>
				<port id="3" precision="I64">
					<dim>4</dim>
				</port>
			</input>
			<output>
				<port id="4" precision="I64">
					<dim>-1</dim>
					<dim>1</dim>
					<dim>-1</dim>
					<dim>-1</dim>
				</port>
			</output>
		</layer>
		<layer id="268" name="Constant_58503" type="Const" version="opset1">
			<data element_type="i64" shape="2" offset="70899432" size="16" />
			<output>
				<port id="0" precision="I64">
					<dim>2</dim>
				</port>
			</output>
		</layer>
		<layer id="269" name="SliceAssign_321/Reshape_4" type="Reshape" version="opset1">
			<data special_zero="false" />
			<input>
				<port id="0" precision="I64">
					<dim>-1</dim>
					<dim>1</dim>
					<dim>-1</dim>
					<dim>-1</dim>
				</port>
				<port id="1" precision="I64">
					<dim>2</dim>
				</port>
			</input>
			<output>
				<port id="2" precision="I64">
					<dim>-1</dim>
					<dim>1</dim>
				</port>
			</output>
		</layer>
		<layer id="270" name="Constant_104465" type="Const" version="opset1">
			<data element_type="i64" shape="4" offset="69849076" size="32" />
			<output>
				<port id="0" precision="I64">
					<dim>4</dim>
				</port>
			</output>
		</layer>
		<layer id="271" name="Constant_104470" type="Const" version="opset1">
			<data element_type="i64" shape="4" offset="69849156" size="32" />
			<output>
				<port id="0" precision="I64">
					<dim>4</dim>
				</port>
			</output>
		</layer>
		<layer id="272" name="__module.model/aten::slice/Slice_5" type="StridedSlice" version="opset1">
			<data begin_mask="1, 1, 1, 0" end_mask="1, 1, 1, 0" new_axis_mask="" shrink_axis_mask="" ellipsis_mask="" />
			<input>
				<port id="0" precision="FP32">
					<dim>-1</dim>
					<dim>1</dim>
					<dim>-1</dim>
					<dim>-1</dim>
				</port>
				<port id="1" precision="I64">
					<dim>4</dim>
				</port>
				<port id="2" precision="I64">
					<dim>4</dim>
				</port>
				<port id="3" precision="I64">
					<dim>4</dim>
				</port>
			</input>
			<output>
				<port id="4" precision="FP32" names="253,263,268_1">
					<dim>-1</dim>
					<dim>1</dim>
					<dim>-1</dim>
					<dim>-1</dim>
				</port>
			</output>
		</layer>
		<layer id="273" name="Constant_123476" type="Const" version="opset1">
			<data element_type="i64" shape="2" offset="70899464" size="16" />
			<output>
				<port id="0" precision="I64">
					<dim>2</dim>
				</port>
			</output>
		</layer>
		<layer id="274" name="__module.model/aten::unsqueeze/Unsqueeze_3" type="Unsqueeze" version="opset1">
			<input>
				<port id="0" precision="I64">
					<dim>-1</dim>
					<dim>-1</dim>
				</port>
				<port id="1" precision="I64">
					<dim>2</dim>
				</port>
			</input>
			<output>
				<port id="2" precision="I64" names="256,257">
					<dim>-1</dim>
					<dim>1</dim>
					<dim>1</dim>
					<dim>-1</dim>
				</port>
			</output>
		</layer>
		<layer id="275" name="__module.model/aten::add/Convert" type="Convert" version="opset1">
			<data destination_type="f32" />
			<input>
				<port id="0" precision="I64">
					<dim>-1</dim>
					<dim>1</dim>
					<dim>1</dim>
					<dim>-1</dim>
				</port>
			</input>
			<output>
				<port id="1" precision="FP32">
					<dim>-1</dim>
					<dim>1</dim>
					<dim>1</dim>
					<dim>-1</dim>
				</port>
			</output>
		</layer>
		<layer id="276" name="__module.model/aten::add/Add_1" type="Add" version="opset1">
			<data auto_broadcast="numpy" />
			<input>
				<port id="0" precision="FP32">
					<dim>-1</dim>
					<dim>1</dim>
					<dim>-1</dim>
					<dim>-1</dim>
				</port>
				<port id="1" precision="FP32">
					<dim>-1</dim>
					<dim>1</dim>
					<dim>1</dim>
					<dim>-1</dim>
				</port>
			</input>
			<output>
				<port id="2" precision="FP32" names="258,padding_mask.1">
					<dim>-1</dim>
					<dim>1</dim>
					<dim>-1</dim>
					<dim>-1</dim>
				</port>
			</output>
		</layer>
		<layer id="277" name="Constant_119397" type="Const" version="opset1">
			<data element_type="f32" shape="1, 1, 1, 1" offset="0" size="4" />
			<output>
				<port id="0" precision="FP32">
					<dim>1</dim>
					<dim>1</dim>
					<dim>1</dim>
					<dim>1</dim>
				</port>
			</output>
		</layer>
		<layer id="278" name="__module.model/aten::eq/Equal" type="Equal" version="opset1">
			<data auto_broadcast="numpy" />
			<input>
				<port id="0" precision="FP32">
					<dim>-1</dim>
					<dim>1</dim>
					<dim>-1</dim>
					<dim>-1</dim>
				</port>
				<port id="1" precision="FP32">
					<dim>1</dim>
					<dim>1</dim>
					<dim>1</dim>
					<dim>1</dim>
				</port>
			</input>
			<output>
				<port id="2" precision="BOOL" names="259,padding_mask">
					<dim>-1</dim>
					<dim>1</dim>
					<dim>-1</dim>
					<dim>-1</dim>
				</port>
			</output>
		</layer>
		<layer id="279" name="__module.model/aten::masked_fill/ConvertLike" type="Const" version="opset1">
			<data element_type="f32" shape="" offset="70899392" size="4" />
			<output>
				<port id="0" precision="FP32" />
			</output>
		</layer>
		<layer id="280" name="__module.model/aten::masked_fill/Select" type="Select" version="opset1">
			<data auto_broadcast="numpy" />
			<input>
				<port id="0" precision="BOOL">
					<dim>-1</dim>
					<dim>1</dim>
					<dim>-1</dim>
					<dim>-1</dim>
				</port>
				<port id="1" precision="FP32" />
				<port id="2" precision="FP32">
					<dim>-1</dim>
					<dim>1</dim>
					<dim>-1</dim>
					<dim>-1</dim>
				</port>
			</input>
			<output>
				<port id="3" precision="FP32" names="264">
					<dim>-1</dim>
					<dim>1</dim>
					<dim>-1</dim>
					<dim>-1</dim>
				</port>
			</output>
		</layer>
		<layer id="281" name="__module.model/aten::copy_/ShapeOf" type="ShapeOf" version="opset3">
			<data output_type="i64" />
			<input>
				<port id="0" precision="FP32">
					<dim>-1</dim>
					<dim>1</dim>
					<dim>-1</dim>
					<dim>-1</dim>
				</port>
			</input>
			<output>
				<port id="1" precision="I64">
					<dim>4</dim>
				</port>
			</output>
		</layer>
		<layer id="282" name="__module.model/aten::copy_/Broadcast" type="Broadcast" version="opset3">
			<data mode="numpy" />
			<input>
				<port id="0" precision="FP32">
					<dim>-1</dim>
					<dim>1</dim>
					<dim>-1</dim>
					<dim>-1</dim>
				</port>
				<port id="1" precision="I64">
					<dim>4</dim>
				</port>
			</input>
			<output>
				<port id="2" precision="FP32" names="268">
					<dim>-1</dim>
					<dim>1</dim>
					<dim>-1</dim>
					<dim>-1</dim>
				</port>
			</output>
		</layer>
		<layer id="283" name="Constant_187333" type="Const" version="opset1">
			<data element_type="i64" shape="1" offset="65648420" size="8" />
			<output>
				<port id="0" precision="I64">
					<dim>1</dim>
				</port>
			</output>
		</layer>
		<layer id="284" name="SliceAssign_321/Reshape_5" type="Reshape" version="opset1">
			<data special_zero="false" />
			<input>
				<port id="0" precision="FP32">
					<dim>-1</dim>
					<dim>1</dim>
					<dim>-1</dim>
					<dim>-1</dim>
				</port>
				<port id="1" precision="I64">
					<dim>1</dim>
				</port>
			</input>
			<output>
				<port id="2" precision="FP32">
					<dim>-1</dim>
				</port>
			</output>
		</layer>
		<layer id="285" name="SliceAssign_321/ScatterNDUpdate" type="ScatterNDUpdate" version="opset4">
			<input>
				<port id="0" precision="FP32">
					<dim>-1</dim>
				</port>
				<port id="1" precision="I64">
					<dim>-1</dim>
					<dim>1</dim>
				</port>
				<port id="2" precision="FP32">
					<dim>-1</dim>
				</port>
			</input>
			<output>
				<port id="3" precision="FP32">
					<dim>-1</dim>
				</port>
			</output>
		</layer>
		<layer id="286" name="SliceAssign_321/Reshape_6" type="Reshape" version="opset1">
			<data special_zero="false" />
			<input>
				<port id="0" precision="FP32">
					<dim>-1</dim>
				</port>
				<port id="1" precision="I64">
					<dim>4</dim>
				</port>
			</input>
			<output>
				<port id="2" precision="FP32" names="1128,1129,1130,1308,1309,1310,1488,1489,1490,1668,1669,1670,1848,1849,1850,2028,2029,2030,2208,2209,2210,2388,2389,2390,248,2568,2569,2570,2748,2749,2750,2928,2929,2930,3108,3109,3110,3288,3289,3290,3468,3469,3470,3648,3649,3650,3828,3829,3830,4008,4009,4010,408,409,410,4188,4189,4190,588,589,590,768,769,770,948,949,950">
					<dim>-1</dim>
					<dim>1</dim>
					<dim>-1</dim>
					<dim>-1</dim>
				</port>
			</output>
		</layer>
		<layer id="287" name="Constant_104515" type="Const" version="opset1">
			<data element_type="i64" shape="4" offset="69849076" size="32" />
			<output>
				<port id="0" precision="I64">
					<dim>4</dim>
				</port>
			</output>
		</layer>
		<layer id="288" name="Constant_104516" type="Const" version="opset1">
			<data element_type="i64" shape="4" offset="69849076" size="32" />
			<output>
				<port id="0" precision="I64">
					<dim>4</dim>
				</port>
			</output>
		</layer>
		<layer id="289" name="Constant_104512" type="Const" version="opset1">
			<data element_type="i64" shape="1" offset="69849108" size="8" />
			<output>
				<port id="0" precision="I64">
					<dim>1</dim>
				</port>
			</output>
		</layer>
		<layer id="290" name="Constant_187334" type="Const" version="opset1">
			<data element_type="i64" shape="1" offset="65648420" size="8" />
			<output>
				<port id="0" precision="I64">
					<dim>1</dim>
				</port>
			</output>
		</layer>
		<layer id="291" name="Reshape_123743" type="Reshape" version="opset1">
			<data special_zero="false" />
			<input>
				<port id="0" precision="I64" />
				<port id="1" precision="I64">
					<dim>1</dim>
				</port>
			</input>
			<output>
				<port id="2" precision="I64">
					<dim>1</dim>
				</port>
			</output>
		</layer>
		<layer id="292" name="ShapeOf_123744" type="ShapeOf" version="opset3">
			<data output_type="i64" />
			<input>
				<port id="0" precision="FP32">
					<dim>-1</dim>
					<dim>4</dim>
					<dim>-1</dim>
					<dim>64</dim>
				</port>
			</input>
			<output>
				<port id="1" precision="I64">
					<dim>4</dim>
				</port>
			</output>
		</layer>
		<layer id="293" name="Constant_123745" type="Const" version="opset1">
			<data element_type="i64" shape="1" offset="69849116" size="8" />
			<output>
				<port id="0" precision="I64">
					<dim>1</dim>
				</port>
			</output>
		</layer>
		<layer id="294" name="Constant_123746" type="Const" version="opset1">
			<data element_type="i64" shape="" offset="4" size="8" />
			<output>
				<port id="0" precision="I64" />
			</output>
		</layer>
		<layer id="295" name="Gather_123747" type="Gather" version="opset8">
			<data batch_dims="0" />
			<input>
				<port id="0" precision="I64">
					<dim>4</dim>
				</port>
				<port id="1" precision="I64">
					<dim>1</dim>
				</port>
				<port id="2" precision="I64" />
			</input>
			<output>
				<port id="3" precision="I64">
					<dim>1</dim>
				</port>
			</output>
		</layer>
		<layer id="296" name="Add_123748" type="Add" version="opset1">
			<data auto_broadcast="numpy" />
			<input>
				<port id="0" precision="I64">
					<dim>1</dim>
				</port>
				<port id="1" precision="I64">
					<dim>1</dim>
				</port>
			</input>
			<output>
				<port id="2" precision="I64" names="407">
					<dim>1</dim>
				</port>
			</output>
		</layer>
		<layer id="297" name="Constant_104511" type="Const" version="opset1">
			<data element_type="i32" shape="1" offset="0" size="4" />
			<output>
				<port id="0" precision="I32">
					<dim>1</dim>
				</port>
			</output>
		</layer>
		<layer id="298" name="ScatterUpdate_104517" type="ScatterUpdate" version="opset3">
			<input>
				<port id="0" precision="I64">
					<dim>4</dim>
				</port>
				<port id="1" precision="I64">
					<dim>1</dim>
				</port>
				<port id="2" precision="I64">
					<dim>1</dim>
				</port>
				<port id="3" precision="I32">
					<dim>1</dim>
				</port>
			</input>
			<output>
				<port id="4" precision="I64">
					<dim>4</dim>
				</port>
			</output>
		</layer>
		<layer id="299" name="Constant_104520" type="Const" version="opset1">
			<data element_type="i64" shape="4" offset="69849156" size="32" />
			<output>
				<port id="0" precision="I64">
					<dim>4</dim>
				</port>
			</output>
		</layer>
		<layer id="300" name="__module.model.layers.0.self_attn/aten::slice/Slice_15" type="StridedSlice" version="opset1">
			<data begin_mask="1, 1, 1, 0" end_mask="1, 1, 1, 0" new_axis_mask="" shrink_axis_mask="" ellipsis_mask="" />
			<input>
				<port id="0" precision="FP32">
					<dim>-1</dim>
					<dim>1</dim>
					<dim>-1</dim>
					<dim>-1</dim>
				</port>
				<port id="1" precision="I64">
					<dim>4</dim>
				</port>
				<port id="2" precision="I64">
					<dim>4</dim>
				</port>
				<port id="3" precision="I64">
					<dim>4</dim>
				</port>
			</input>
			<output>
				<port id="4" precision="FP32" names="411">
					<dim>-1</dim>
					<dim>1</dim>
					<dim>-1</dim>
					<dim>-1</dim>
				</port>
			</output>
		</layer>
		<layer id="301" name="__module.model.layers.0.self_attn/aten::scaled_dot_product_attention/ScaledDotProductAttention" type="ScaledDotProductAttention" version="opset13">
			<data causal="false" />
			<input>
				<port id="0" precision="FP32">
					<dim>-1</dim>
					<dim>32</dim>
					<dim>-1</dim>
					<dim>64</dim>
				</port>
				<port id="1" precision="FP32">
					<dim>-1</dim>
					<dim>32</dim>
					<dim>-1</dim>
					<dim>64</dim>
				</port>
				<port id="2" precision="FP32">
					<dim>-1</dim>
					<dim>32</dim>
					<dim>-1</dim>
					<dim>64</dim>
				</port>
				<port id="3" precision="FP32">
					<dim>-1</dim>
					<dim>1</dim>
					<dim>-1</dim>
					<dim>-1</dim>
				</port>
			</input>
			<output>
				<port id="4" precision="FP32" names="412,attn_output.1">
					<dim>-1</dim>
					<dim>32</dim>
					<dim>-1</dim>
					<dim>64</dim>
				</port>
			</output>
		</layer>
		<layer id="302" name="__module.model.layers.0.self_attn/aten::transpose/ScatterElementsUpdate_3" type="Const" version="opset1">
			<data element_type="i32" shape="4" offset="69848912" size="16" />
			<output>
				<port id="0" precision="I32">
					<dim>4</dim>
				</port>
			</output>
		</layer>
		<layer id="303" name="__module.model.layers.0.self_attn/aten::transpose/Transpose_3" type="Transpose" version="opset1">
			<input>
				<port id="0" precision="FP32">
					<dim>-1</dim>
					<dim>32</dim>
					<dim>-1</dim>
					<dim>64</dim>
				</port>
				<port id="1" precision="I32">
					<dim>4</dim>
				</port>
			</input>
			<output>
				<port id="2" precision="FP32" names="413">
					<dim>-1</dim>
					<dim>-1</dim>
					<dim>32</dim>
					<dim>64</dim>
				</port>
			</output>
		</layer>
		<layer id="304" name="__module.model.layers.0.self_attn/aten::size/ShapeOf" type="ShapeOf" version="opset3">
			<data output_type="i64" />
			<input>
				<port id="0" precision="FP32">
					<dim>-1</dim>
					<dim>-1</dim>
					<dim>2048</dim>
				</port>
			</input>
			<output>
				<port id="1" precision="I64">
					<dim>3</dim>
				</port>
			</output>
		</layer>
		<layer id="305" name="Constant_101124" type="Const" version="opset1">
			<data element_type="i64" shape="2" offset="70899448" size="16" />
			<output>
				<port id="0" precision="I64">
					<dim>2</dim>
				</port>
			</output>
		</layer>
		<layer id="306" name="Constant_101125" type="Const" version="opset1">
			<data element_type="i64" shape="" offset="4" size="8" />
			<output>
				<port id="0" precision="I64" />
			</output>
		</layer>
		<layer id="307" name="Gather_101126" type="Gather" version="opset8">
			<data batch_dims="0" />
			<input>
				<port id="0" precision="I64">
					<dim>3</dim>
				</port>
				<port id="1" precision="I64">
					<dim>2</dim>
				</port>
				<port id="2" precision="I64" />
			</input>
			<output>
				<port id="3" precision="I64">
					<dim>2</dim>
				</port>
			</output>
		</layer>
		<layer id="308" name="__module.model.layers.0.self_attn.rotary_emb/prim::ListConstruct/Reshape_0" type="Const" version="opset1">
			<data element_type="i64" shape="1" offset="65648420" size="8" />
			<output>
				<port id="0" precision="I64">
					<dim>1</dim>
				</port>
			</output>
		</layer>
		<layer id="309" name="__module.model.layers.0.self_attn/prim::ListConstruct/Concat_7" type="Concat" version="opset1">
			<data axis="0" />
			<input>
				<port id="0" precision="I64">
					<dim>2</dim>
				</port>
				<port id="1" precision="I64">
					<dim>1</dim>
				</port>
			</input>
			<output>
				<port id="2" precision="I64" names="415">
					<dim>3</dim>
				</port>
			</output>
		</layer>
		<layer id="310" name="__module.model.layers.0.self_attn/aten::view/Reshape_3" type="Reshape" version="opset1">
			<data special_zero="false" />
			<input>
				<port id="0" precision="FP32">
					<dim>-1</dim>
					<dim>-1</dim>
					<dim>32</dim>
					<dim>64</dim>
				</port>
				<port id="1" precision="I64">
					<dim>3</dim>
				</port>
			</input>
			<output>
				<port id="2" precision="FP32" names="416">
					<dim>-1</dim>
					<dim>-1</dim>
					<dim>-1</dim>
				</port>
			</output>
		</layer>
		<layer id="311" name="self.model.layers.0.self_attn.o_proj.weight" type="Const" version="opset1">
			<data element_type="u8" shape="2048, 2048" offset="70899480" size="4194304" />
			<output>
				<port id="0" precision="U8">
					<dim>2048</dim>
					<dim>2048</dim>
				</port>
			</output>
		</layer>
		<layer id="312" name="Convert_152414" type="Convert" version="opset1">
			<data destination_type="f16" />
			<input>
				<port id="0" precision="U8">
					<dim>2048</dim>
					<dim>2048</dim>
				</port>
			</input>
			<output>
				<port id="1" precision="FP16">
					<dim>2048</dim>
					<dim>2048</dim>
				</port>
			</output>
		</layer>
		<layer id="313" name="self.model.layers.0.self_attn.o_proj.weight/zero_point" type="Const" version="opset1">
			<data element_type="u8" shape="2048, 1" offset="75093784" size="2048" />
			<output>
				<port id="0" precision="U8">
					<dim>2048</dim>
					<dim>1</dim>
				</port>
			</output>
		</layer>
		<layer id="314" name="Convert_152417" type="Convert" version="opset1">
			<data destination_type="f16" />
			<input>
				<port id="0" precision="U8">
					<dim>2048</dim>
					<dim>1</dim>
				</port>
			</input>
			<output>
				<port id="1" precision="FP16">
					<dim>2048</dim>
					<dim>1</dim>
				</port>
			</output>
		</layer>
		<layer id="315" name="self.model.layers.0.self_attn.o_proj.weight/zero_point/subtract" type="Subtract" version="opset1">
			<data auto_broadcast="numpy" />
			<input>
				<port id="0" precision="FP16">
					<dim>2048</dim>
					<dim>2048</dim>
				</port>
				<port id="1" precision="FP16">
					<dim>2048</dim>
					<dim>1</dim>
				</port>
			</input>
			<output>
				<port id="2" precision="FP16">
					<dim>2048</dim>
					<dim>2048</dim>
				</port>
			</output>
		</layer>
		<layer id="316" name="self.model.layers.0.self_attn.o_proj.weight/scale" type="Const" version="opset1">
			<data element_type="f16" shape="2048, 1" offset="75095832" size="4096" />
			<output>
				<port id="0" precision="FP16">
					<dim>2048</dim>
					<dim>1</dim>
				</port>
			</output>
		</layer>
		<layer id="317" name="self.model.layers.0.self_attn.o_proj.weight/fq_weights_1" type="Multiply" version="opset1">
			<data auto_broadcast="numpy" />
			<input>
				<port id="0" precision="FP16">
					<dim>2048</dim>
					<dim>2048</dim>
				</port>
				<port id="1" precision="FP16">
					<dim>2048</dim>
					<dim>1</dim>
				</port>
			</input>
			<output>
				<port id="2" precision="FP16">
					<dim>2048</dim>
					<dim>2048</dim>
				</port>
			</output>
		</layer>
		<layer id="318" name="self.model.layers.0.self_attn.o_proj.weight/fq_weights_1/convert" type="Convert" version="opset1">
			<data destination_type="f32" />
			<input>
				<port id="0" precision="FP16">
					<dim>2048</dim>
					<dim>2048</dim>
				</port>
			</input>
			<output>
				<port id="1" precision="FP32">
					<dim>2048</dim>
					<dim>2048</dim>
				</port>
			</output>
		</layer>
		<layer id="319" name="__module.model.layers.0.self_attn.o_proj/aten::linear/MatMul" type="MatMul" version="opset1">
			<data transpose_a="false" transpose_b="true" />
			<input>
				<port id="0" precision="FP32">
					<dim>-1</dim>
					<dim>-1</dim>
					<dim>-1</dim>
				</port>
				<port id="1" precision="FP32">
					<dim>2048</dim>
					<dim>2048</dim>
				</port>
			</input>
			<output>
				<port id="2" precision="FP32" names="418,420,hidden_states.17">
					<dim>-1</dim>
					<dim>-1</dim>
					<dim>2048</dim>
				</port>
			</output>
		</layer>
		<layer id="320" name="__module.model.layers.0/aten::add/Add" type="Add" version="opset1">
			<data auto_broadcast="numpy" />
			<input>
				<port id="0" precision="FP32">
					<dim>-1</dim>
					<dim>-1</dim>
					<dim>2048</dim>
				</port>
				<port id="1" precision="FP32">
					<dim>-1</dim>
					<dim>-1</dim>
					<dim>2048</dim>
				</port>
			</input>
			<output>
				<port id="2" precision="FP32" names="423,425,436,hidden_states.19,hidden_states.21">
					<dim>-1</dim>
					<dim>-1</dim>
					<dim>2048</dim>
				</port>
			</output>
		</layer>
		<layer id="321" name="Constant_119401" type="Const" version="opset1">
			<data element_type="f32" shape="1, 1, 2048" offset="75099928" size="8192" />
			<output>
				<port id="0" precision="FP32">
					<dim>1</dim>
					<dim>1</dim>
					<dim>2048</dim>
				</port>
			</output>
		</layer>
		<layer id="322" name="Constant_119400" type="Const" version="opset1">
			<data element_type="f32" shape="1, 1, 1" offset="65648412" size="4" />
			<output>
				<port id="0" precision="FP32">
					<dim>1</dim>
					<dim>1</dim>
					<dim>1</dim>
				</port>
			</output>
		</layer>
		<layer id="323" name="Constant_119398" type="Const" version="opset1">
			<data element_type="f32" shape="1, 1, 1" offset="65648416" size="4" />
			<output>
				<port id="0" precision="FP32">
					<dim>1</dim>
					<dim>1</dim>
					<dim>1</dim>
				</port>
			</output>
		</layer>
		<layer id="324" name="__module.model.layers.0.post_attention_layernorm/aten::pow/Power" type="Power" version="opset1">
			<data auto_broadcast="numpy" />
			<input>
				<port id="0" precision="FP32">
					<dim>-1</dim>
					<dim>-1</dim>
					<dim>2048</dim>
				</port>
				<port id="1" precision="FP32">
					<dim>1</dim>
					<dim>1</dim>
					<dim>1</dim>
				</port>
			</input>
			<output>
				<port id="2" precision="FP32" names="426">
					<dim>-1</dim>
					<dim>-1</dim>
					<dim>2048</dim>
				</port>
			</output>
		</layer>
		<layer id="325" name="Constant_1028" type="Const" version="opset1">
			<data element_type="i64" shape="1" offset="65648420" size="8" />
			<output>
				<port id="0" precision="I64" names="427">
					<dim>1</dim>
				</port>
			</output>
		</layer>
		<layer id="326" name="__module.model.layers.0.post_attention_layernorm/aten::mean/ReduceMean" type="ReduceMean" version="opset1">
			<data keep_dims="true" />
			<input>
				<port id="0" precision="FP32">
					<dim>-1</dim>
					<dim>-1</dim>
					<dim>2048</dim>
				</port>
				<port id="1" precision="I64">
					<dim>1</dim>
				</port>
			</input>
			<output>
				<port id="2" precision="FP32" names="428,variance.3">
					<dim>-1</dim>
					<dim>-1</dim>
					<dim>1</dim>
				</port>
			</output>
		</layer>
		<layer id="327" name="Constant_119399" type="Const" version="opset1">
			<data element_type="f32" shape="1, 1, 1" offset="65648428" size="4" />
			<output>
				<port id="0" precision="FP32">
					<dim>1</dim>
					<dim>1</dim>
					<dim>1</dim>
				</port>
			</output>
		</layer>
		<layer id="328" name="__module.model.layers.0.post_attention_layernorm/aten::add/Add" type="Add" version="opset1">
			<data auto_broadcast="numpy" />
			<input>
				<port id="0" precision="FP32">
					<dim>-1</dim>
					<dim>-1</dim>
					<dim>1</dim>
				</port>
				<port id="1" precision="FP32">
					<dim>1</dim>
					<dim>1</dim>
					<dim>1</dim>
				</port>
			</input>
			<output>
				<port id="2" precision="FP32" names="429">
					<dim>-1</dim>
					<dim>-1</dim>
					<dim>1</dim>
				</port>
			</output>
		</layer>
		<layer id="329" name="__module.model.layers.0.post_attention_layernorm/aten::rsqrt/Sqrt" type="Sqrt" version="opset1">
			<input>
				<port id="0" precision="FP32">
					<dim>-1</dim>
					<dim>-1</dim>
					<dim>1</dim>
				</port>
			</input>
			<output>
				<port id="1" precision="FP32">
					<dim>-1</dim>
					<dim>-1</dim>
					<dim>1</dim>
				</port>
			</output>
		</layer>
		<layer id="330" name="__module.model.layers.0.post_attention_layernorm/aten::rsqrt/Divide" type="Divide" version="opset1">
			<data auto_broadcast="numpy" m_pythondiv="true" />
			<input>
				<port id="0" precision="FP32">
					<dim>1</dim>
					<dim>1</dim>
					<dim>1</dim>
				</port>
				<port id="1" precision="FP32">
					<dim>-1</dim>
					<dim>-1</dim>
					<dim>1</dim>
				</port>
			</input>
			<output>
				<port id="2" precision="FP32" names="430">
					<dim>-1</dim>
					<dim>-1</dim>
					<dim>1</dim>
				</port>
			</output>
		</layer>
		<layer id="331" name="__module.model.layers.0.post_attention_layernorm/aten::mul/Multiply" type="Multiply" version="opset1">
			<data auto_broadcast="numpy" />
			<input>
				<port id="0" precision="FP32">
					<dim>-1</dim>
					<dim>-1</dim>
					<dim>2048</dim>
				</port>
				<port id="1" precision="FP32">
					<dim>-1</dim>
					<dim>-1</dim>
					<dim>1</dim>
				</port>
			</input>
			<output>
				<port id="2" precision="FP32" names="431,432,hidden_states.23,hidden_states.25">
					<dim>-1</dim>
					<dim>-1</dim>
					<dim>2048</dim>
				</port>
			</output>
		</layer>
		<layer id="332" name="__module.model.layers.0.post_attention_layernorm/aten::mul/Multiply_1" type="Multiply" version="opset1">
			<data auto_broadcast="numpy" />
			<input>
				<port id="0" precision="FP32">
					<dim>1</dim>
					<dim>1</dim>
					<dim>2048</dim>
				</port>
				<port id="1" precision="FP32">
					<dim>-1</dim>
					<dim>-1</dim>
					<dim>2048</dim>
				</port>
			</input>
			<output>
				<port id="2" precision="FP32" names="433,435">
					<dim>-1</dim>
					<dim>-1</dim>
					<dim>2048</dim>
				</port>
			</output>
		</layer>
		<layer id="333" name="self.model.layers.0.mlp.gate_proj.weight" type="Const" version="opset1">
			<data element_type="u8" shape="5632, 2048" offset="75108120" size="11534336" />
			<output>
				<port id="0" precision="U8">
					<dim>5632</dim>
					<dim>2048</dim>
				</port>
			</output>
		</layer>
		<layer id="334" name="Convert_152436" type="Convert" version="opset1">
			<data destination_type="f16" />
			<input>
				<port id="0" precision="U8">
					<dim>5632</dim>
					<dim>2048</dim>
				</port>
			</input>
			<output>
				<port id="1" precision="FP16">
					<dim>5632</dim>
					<dim>2048</dim>
				</port>
			</output>
		</layer>
		<layer id="335" name="self.model.layers.0.mlp.gate_proj.weight/zero_point" type="Const" version="opset1">
			<data element_type="u8" shape="5632, 1" offset="86642456" size="5632" />
			<output>
				<port id="0" precision="U8">
					<dim>5632</dim>
					<dim>1</dim>
				</port>
			</output>
		</layer>
		<layer id="336" name="Convert_152439" type="Convert" version="opset1">
			<data destination_type="f16" />
			<input>
				<port id="0" precision="U8">
					<dim>5632</dim>
					<dim>1</dim>
				</port>
			</input>
			<output>
				<port id="1" precision="FP16">
					<dim>5632</dim>
					<dim>1</dim>
				</port>
			</output>
		</layer>
		<layer id="337" name="self.model.layers.0.mlp.gate_proj.weight/zero_point/subtract" type="Subtract" version="opset1">
			<data auto_broadcast="numpy" />
			<input>
				<port id="0" precision="FP16">
					<dim>5632</dim>
					<dim>2048</dim>
				</port>
				<port id="1" precision="FP16">
					<dim>5632</dim>
					<dim>1</dim>
				</port>
			</input>
			<output>
				<port id="2" precision="FP16">
					<dim>5632</dim>
					<dim>2048</dim>
				</port>
			</output>
		</layer>
		<layer id="338" name="self.model.layers.0.mlp.gate_proj.weight/scale" type="Const" version="opset1">
			<data element_type="f16" shape="5632, 1" offset="86648088" size="11264" />
			<output>
				<port id="0" precision="FP16">
					<dim>5632</dim>
					<dim>1</dim>
				</port>
			</output>
		</layer>
		<layer id="339" name="self.model.layers.0.mlp.gate_proj.weight/fq_weights_1" type="Multiply" version="opset1">
			<data auto_broadcast="numpy" />
			<input>
				<port id="0" precision="FP16">
					<dim>5632</dim>
					<dim>2048</dim>
				</port>
				<port id="1" precision="FP16">
					<dim>5632</dim>
					<dim>1</dim>
				</port>
			</input>
			<output>
				<port id="2" precision="FP16">
					<dim>5632</dim>
					<dim>2048</dim>
				</port>
			</output>
		</layer>
		<layer id="340" name="self.model.layers.0.mlp.gate_proj.weight/fq_weights_1/convert" type="Convert" version="opset1">
			<data destination_type="f32" />
			<input>
				<port id="0" precision="FP16">
					<dim>5632</dim>
					<dim>2048</dim>
				</port>
			</input>
			<output>
				<port id="1" precision="FP32">
					<dim>5632</dim>
					<dim>2048</dim>
				</port>
			</output>
		</layer>
		<layer id="341" name="__module.model.layers.0.mlp.gate_proj/aten::linear/MatMul" type="MatMul" version="opset1">
			<data transpose_a="false" transpose_b="true" />
			<input>
				<port id="0" precision="FP32">
					<dim>-1</dim>
					<dim>-1</dim>
					<dim>2048</dim>
				</port>
				<port id="1" precision="FP32">
					<dim>5632</dim>
					<dim>2048</dim>
				</port>
			</input>
			<output>
				<port id="2" precision="FP32" names="441,input.1">
					<dim>-1</dim>
					<dim>-1</dim>
					<dim>5632</dim>
				</port>
			</output>
		</layer>
		<layer id="342" name="__module.model.layers.0.mlp.act_fn/aten::silu/Swish" type="Swish" version="opset4">
			<input>
				<port id="0" precision="FP32">
					<dim>-1</dim>
					<dim>-1</dim>
					<dim>5632</dim>
				</port>
			</input>
			<output>
				<port id="1" precision="FP32" names="442">
					<dim>-1</dim>
					<dim>-1</dim>
					<dim>5632</dim>
				</port>
			</output>
		</layer>
		<layer id="343" name="self.model.layers.0.mlp.up_proj.weight" type="Const" version="opset1">
			<data element_type="u8" shape="5632, 2048" offset="86659352" size="11534336" />
			<output>
				<port id="0" precision="U8">
					<dim>5632</dim>
					<dim>2048</dim>
				</port>
			</output>
		</layer>
		<layer id="344" name="Convert_152425" type="Convert" version="opset1">
			<data destination_type="f16" />
			<input>
				<port id="0" precision="U8">
					<dim>5632</dim>
					<dim>2048</dim>
				</port>
			</input>
			<output>
				<port id="1" precision="FP16">
					<dim>5632</dim>
					<dim>2048</dim>
				</port>
			</output>
		</layer>
		<layer id="345" name="self.model.layers.0.mlp.up_proj.weight/zero_point" type="Const" version="opset1">
			<data element_type="u8" shape="5632, 1" offset="98193688" size="5632" />
			<output>
				<port id="0" precision="U8">
					<dim>5632</dim>
					<dim>1</dim>
				</port>
			</output>
		</layer>
		<layer id="346" name="Convert_152428" type="Convert" version="opset1">
			<data destination_type="f16" />
			<input>
				<port id="0" precision="U8">
					<dim>5632</dim>
					<dim>1</dim>
				</port>
			</input>
			<output>
				<port id="1" precision="FP16">
					<dim>5632</dim>
					<dim>1</dim>
				</port>
			</output>
		</layer>
		<layer id="347" name="self.model.layers.0.mlp.up_proj.weight/zero_point/subtract" type="Subtract" version="opset1">
			<data auto_broadcast="numpy" />
			<input>
				<port id="0" precision="FP16">
					<dim>5632</dim>
					<dim>2048</dim>
				</port>
				<port id="1" precision="FP16">
					<dim>5632</dim>
					<dim>1</dim>
				</port>
			</input>
			<output>
				<port id="2" precision="FP16">
					<dim>5632</dim>
					<dim>2048</dim>
				</port>
			</output>
		</layer>
		<layer id="348" name="self.model.layers.0.mlp.up_proj.weight/scale" type="Const" version="opset1">
			<data element_type="f16" shape="5632, 1" offset="98199320" size="11264" />
			<output>
				<port id="0" precision="FP16">
					<dim>5632</dim>
					<dim>1</dim>
				</port>
			</output>
		</layer>
		<layer id="349" name="self.model.layers.0.mlp.up_proj.weight/fq_weights_1" type="Multiply" version="opset1">
			<data auto_broadcast="numpy" />
			<input>
				<port id="0" precision="FP16">
					<dim>5632</dim>
					<dim>2048</dim>
				</port>
				<port id="1" precision="FP16">
					<dim>5632</dim>
					<dim>1</dim>
				</port>
			</input>
			<output>
				<port id="2" precision="FP16">
					<dim>5632</dim>
					<dim>2048</dim>
				</port>
			</output>
		</layer>
		<layer id="350" name="self.model.layers.0.mlp.up_proj.weight/fq_weights_1/convert" type="Convert" version="opset1">
			<data destination_type="f32" />
			<input>
				<port id="0" precision="FP16">
					<dim>5632</dim>
					<dim>2048</dim>
				</port>
			</input>
			<output>
				<port id="1" precision="FP32">
					<dim>5632</dim>
					<dim>2048</dim>
				</port>
			</output>
		</layer>
		<layer id="351" name="__module.model.layers.0.mlp.up_proj/aten::linear/MatMul" type="MatMul" version="opset1">
			<data transpose_a="false" transpose_b="true" />
			<input>
				<port id="0" precision="FP32">
					<dim>-1</dim>
					<dim>-1</dim>
					<dim>2048</dim>
				</port>
				<port id="1" precision="FP32">
					<dim>5632</dim>
					<dim>2048</dim>
				</port>
			</input>
			<output>
				<port id="2" precision="FP32" names="444">
					<dim>-1</dim>
					<dim>-1</dim>
					<dim>5632</dim>
				</port>
			</output>
		</layer>
		<layer id="352" name="__module.model.layers.0.mlp/aten::mul/Multiply" type="Multiply" version="opset1">
			<data auto_broadcast="numpy" />
			<input>
				<port id="0" precision="FP32">
					<dim>-1</dim>
					<dim>-1</dim>
					<dim>5632</dim>
				</port>
				<port id="1" precision="FP32">
					<dim>-1</dim>
					<dim>-1</dim>
					<dim>5632</dim>
				</port>
			</input>
			<output>
				<port id="2" precision="FP32" names="445">
					<dim>-1</dim>
					<dim>-1</dim>
					<dim>5632</dim>
				</port>
			</output>
		</layer>
		<layer id="353" name="self.model.layers.0.mlp.down_proj.weight" type="Const" version="opset1">
			<data element_type="u8" shape="2048, 5632" offset="98210584" size="11534336" />
			<output>
				<port id="0" precision="U8">
					<dim>2048</dim>
					<dim>5632</dim>
				</port>
			</output>
		</layer>
		<layer id="354" name="Convert_152447" type="Convert" version="opset1">
			<data destination_type="f16" />
			<input>
				<port id="0" precision="U8">
					<dim>2048</dim>
					<dim>5632</dim>
				</port>
			</input>
			<output>
				<port id="1" precision="FP16">
					<dim>2048</dim>
					<dim>5632</dim>
				</port>
			</output>
		</layer>
		<layer id="355" name="self.model.layers.0.mlp.down_proj.weight/zero_point" type="Const" version="opset1">
			<data element_type="u8" shape="2048, 1" offset="109744920" size="2048" />
			<output>
				<port id="0" precision="U8">
					<dim>2048</dim>
					<dim>1</dim>
				</port>
			</output>
		</layer>
		<layer id="356" name="Convert_152450" type="Convert" version="opset1">
			<data destination_type="f16" />
			<input>
				<port id="0" precision="U8">
					<dim>2048</dim>
					<dim>1</dim>
				</port>
			</input>
			<output>
				<port id="1" precision="FP16">
					<dim>2048</dim>
					<dim>1</dim>
				</port>
			</output>
		</layer>
		<layer id="357" name="self.model.layers.0.mlp.down_proj.weight/zero_point/subtract" type="Subtract" version="opset1">
			<data auto_broadcast="numpy" />
			<input>
				<port id="0" precision="FP16">
					<dim>2048</dim>
					<dim>5632</dim>
				</port>
				<port id="1" precision="FP16">
					<dim>2048</dim>
					<dim>1</dim>
				</port>
			</input>
			<output>
				<port id="2" precision="FP16">
					<dim>2048</dim>
					<dim>5632</dim>
				</port>
			</output>
		</layer>
		<layer id="358" name="self.model.layers.0.mlp.down_proj.weight/scale" type="Const" version="opset1">
			<data element_type="f16" shape="2048, 1" offset="109746968" size="4096" />
			<output>
				<port id="0" precision="FP16">
					<dim>2048</dim>
					<dim>1</dim>
				</port>
			</output>
		</layer>
		<layer id="359" name="self.model.layers.0.mlp.down_proj.weight/fq_weights_1" type="Multiply" version="opset1">
			<data auto_broadcast="numpy" />
			<input>
				<port id="0" precision="FP16">
					<dim>2048</dim>
					<dim>5632</dim>
				</port>
				<port id="1" precision="FP16">
					<dim>2048</dim>
					<dim>1</dim>
				</port>
			</input>
			<output>
				<port id="2" precision="FP16">
					<dim>2048</dim>
					<dim>5632</dim>
				</port>
			</output>
		</layer>
		<layer id="360" name="self.model.layers.0.mlp.down_proj.weight/fq_weights_1/convert" type="Convert" version="opset1">
			<data destination_type="f32" />
			<input>
				<port id="0" precision="FP16">
					<dim>2048</dim>
					<dim>5632</dim>
				</port>
			</input>
			<output>
				<port id="1" precision="FP32">
					<dim>2048</dim>
					<dim>5632</dim>
				</port>
			</output>
		</layer>
		<layer id="361" name="__module.model.layers.0.mlp.down_proj/aten::linear/MatMul" type="MatMul" version="opset1">
			<data transpose_a="false" transpose_b="true" />
			<input>
				<port id="0" precision="FP32">
					<dim>-1</dim>
					<dim>-1</dim>
					<dim>5632</dim>
				</port>
				<port id="1" precision="FP32">
					<dim>2048</dim>
					<dim>5632</dim>
				</port>
			</input>
			<output>
				<port id="2" precision="FP32" names="447,hidden_states.27">
					<dim>-1</dim>
					<dim>-1</dim>
					<dim>2048</dim>
				</port>
			</output>
		</layer>
		<layer id="362" name="__module.model.layers.0/aten::add/Add_1" type="Add" version="opset1">
			<data auto_broadcast="numpy" />
			<input>
				<port id="0" precision="FP32">
					<dim>-1</dim>
					<dim>-1</dim>
					<dim>2048</dim>
				</port>
				<port id="1" precision="FP32">
					<dim>-1</dim>
					<dim>-1</dim>
					<dim>2048</dim>
				</port>
			</input>
			<output>
				<port id="2" precision="FP32" names="448,450,458,469,hidden_states.29,hidden_states.31">
					<dim>-1</dim>
					<dim>-1</dim>
					<dim>2048</dim>
				</port>
			</output>
		</layer>
		<layer id="363" name="Constant_119405" type="Const" version="opset1">
			<data element_type="f32" shape="1, 1, 2048" offset="109751064" size="8192" />
			<output>
				<port id="0" precision="FP32">
					<dim>1</dim>
					<dim>1</dim>
					<dim>2048</dim>
				</port>
			</output>
		</layer>
		<layer id="364" name="Constant_119404" type="Const" version="opset1">
			<data element_type="f32" shape="1, 1, 1" offset="65648412" size="4" />
			<output>
				<port id="0" precision="FP32">
					<dim>1</dim>
					<dim>1</dim>
					<dim>1</dim>
				</port>
			</output>
		</layer>
		<layer id="365" name="Constant_119402" type="Const" version="opset1">
			<data element_type="f32" shape="1, 1, 1" offset="65648416" size="4" />
			<output>
				<port id="0" precision="FP32">
					<dim>1</dim>
					<dim>1</dim>
					<dim>1</dim>
				</port>
			</output>
		</layer>
		<layer id="366" name="__module.model.layers.1.input_layernorm/aten::pow/Power" type="Power" version="opset1">
			<data auto_broadcast="numpy" />
			<input>
				<port id="0" precision="FP32">
					<dim>-1</dim>
					<dim>-1</dim>
					<dim>2048</dim>
				</port>
				<port id="1" precision="FP32">
					<dim>1</dim>
					<dim>1</dim>
					<dim>1</dim>
				</port>
			</input>
			<output>
				<port id="2" precision="FP32" names="459">
					<dim>-1</dim>
					<dim>-1</dim>
					<dim>2048</dim>
				</port>
			</output>
		</layer>
		<layer id="367" name="Constant_1099" type="Const" version="opset1">
			<data element_type="i64" shape="1" offset="65648420" size="8" />
			<output>
				<port id="0" precision="I64" names="460">
					<dim>1</dim>
				</port>
			</output>
		</layer>
		<layer id="368" name="__module.model.layers.1.input_layernorm/aten::mean/ReduceMean" type="ReduceMean" version="opset1">
			<data keep_dims="true" />
			<input>
				<port id="0" precision="FP32">
					<dim>-1</dim>
					<dim>-1</dim>
					<dim>2048</dim>
				</port>
				<port id="1" precision="I64">
					<dim>1</dim>
				</port>
			</input>
			<output>
				<port id="2" precision="FP32" names="461,variance.5">
					<dim>-1</dim>
					<dim>-1</dim>
					<dim>1</dim>
				</port>
			</output>
		</layer>
		<layer id="369" name="Constant_119403" type="Const" version="opset1">
			<data element_type="f32" shape="1, 1, 1" offset="65648428" size="4" />
			<output>
				<port id="0" precision="FP32">
					<dim>1</dim>
					<dim>1</dim>
					<dim>1</dim>
				</port>
			</output>
		</layer>
		<layer id="370" name="__module.model.layers.1.input_layernorm/aten::add/Add" type="Add" version="opset1">
			<data auto_broadcast="numpy" />
			<input>
				<port id="0" precision="FP32">
					<dim>-1</dim>
					<dim>-1</dim>
					<dim>1</dim>
				</port>
				<port id="1" precision="FP32">
					<dim>1</dim>
					<dim>1</dim>
					<dim>1</dim>
				</port>
			</input>
			<output>
				<port id="2" precision="FP32" names="462">
					<dim>-1</dim>
					<dim>-1</dim>
					<dim>1</dim>
				</port>
			</output>
		</layer>
		<layer id="371" name="__module.model.layers.1.input_layernorm/aten::rsqrt/Sqrt" type="Sqrt" version="opset1">
			<input>
				<port id="0" precision="FP32">
					<dim>-1</dim>
					<dim>-1</dim>
					<dim>1</dim>
				</port>
			</input>
			<output>
				<port id="1" precision="FP32">
					<dim>-1</dim>
					<dim>-1</dim>
					<dim>1</dim>
				</port>
			</output>
		</layer>
		<layer id="372" name="__module.model.layers.1.input_layernorm/aten::rsqrt/Divide" type="Divide" version="opset1">
			<data auto_broadcast="numpy" m_pythondiv="true" />
			<input>
				<port id="0" precision="FP32">
					<dim>1</dim>
					<dim>1</dim>
					<dim>1</dim>
				</port>
				<port id="1" precision="FP32">
					<dim>-1</dim>
					<dim>-1</dim>
					<dim>1</dim>
				</port>
			</input>
			<output>
				<port id="2" precision="FP32" names="463">
					<dim>-1</dim>
					<dim>-1</dim>
					<dim>1</dim>
				</port>
			</output>
		</layer>
		<layer id="373" name="__module.model.layers.1.input_layernorm/aten::mul/Multiply" type="Multiply" version="opset1">
			<data auto_broadcast="numpy" />
			<input>
				<port id="0" precision="FP32">
					<dim>-1</dim>
					<dim>-1</dim>
					<dim>2048</dim>
				</port>
				<port id="1" precision="FP32">
					<dim>-1</dim>
					<dim>-1</dim>
					<dim>1</dim>
				</port>
			</input>
			<output>
				<port id="2" precision="FP32" names="464,465,hidden_states.33,hidden_states.35">
					<dim>-1</dim>
					<dim>-1</dim>
					<dim>2048</dim>
				</port>
			</output>
		</layer>
		<layer id="374" name="__module.model.layers.1.input_layernorm/aten::mul/Multiply_1" type="Multiply" version="opset1">
			<data auto_broadcast="numpy" />
			<input>
				<port id="0" precision="FP32">
					<dim>1</dim>
					<dim>1</dim>
					<dim>2048</dim>
				</port>
				<port id="1" precision="FP32">
					<dim>-1</dim>
					<dim>-1</dim>
					<dim>2048</dim>
				</port>
			</input>
			<output>
				<port id="2" precision="FP32" names="466,468,hidden_states.37">
					<dim>-1</dim>
					<dim>-1</dim>
					<dim>2048</dim>
				</port>
			</output>
		</layer>
		<layer id="375" name="self.model.layers.1.self_attn.q_proj.weight" type="Const" version="opset1">
			<data element_type="u8" shape="2048, 2048" offset="109759256" size="4194304" />
			<output>
				<port id="0" precision="U8">
					<dim>2048</dim>
					<dim>2048</dim>
				</port>
			</output>
		</layer>
		<layer id="376" name="Convert_152480" type="Convert" version="opset1">
			<data destination_type="f16" />
			<input>
				<port id="0" precision="U8">
					<dim>2048</dim>
					<dim>2048</dim>
				</port>
			</input>
			<output>
				<port id="1" precision="FP16">
					<dim>2048</dim>
					<dim>2048</dim>
				</port>
			</output>
		</layer>
		<layer id="377" name="self.model.layers.1.self_attn.q_proj.weight/zero_point" type="Const" version="opset1">
			<data element_type="u8" shape="2048, 1" offset="113953560" size="2048" />
			<output>
				<port id="0" precision="U8">
					<dim>2048</dim>
					<dim>1</dim>
				</port>
			</output>
		</layer>
		<layer id="378" name="Convert_152483" type="Convert" version="opset1">
			<data destination_type="f16" />
			<input>
				<port id="0" precision="U8">
					<dim>2048</dim>
					<dim>1</dim>
				</port>
			</input>
			<output>
				<port id="1" precision="FP16">
					<dim>2048</dim>
					<dim>1</dim>
				</port>
			</output>
		</layer>
		<layer id="379" name="self.model.layers.1.self_attn.q_proj.weight/zero_point/subtract" type="Subtract" version="opset1">
			<data auto_broadcast="numpy" />
			<input>
				<port id="0" precision="FP16">
					<dim>2048</dim>
					<dim>2048</dim>
				</port>
				<port id="1" precision="FP16">
					<dim>2048</dim>
					<dim>1</dim>
				</port>
			</input>
			<output>
				<port id="2" precision="FP16">
					<dim>2048</dim>
					<dim>2048</dim>
				</port>
			</output>
		</layer>
		<layer id="380" name="self.model.layers.1.self_attn.q_proj.weight/scale" type="Const" version="opset1">
			<data element_type="f16" shape="2048, 1" offset="113955608" size="4096" />
			<output>
				<port id="0" precision="FP16">
					<dim>2048</dim>
					<dim>1</dim>
				</port>
			</output>
		</layer>
		<layer id="381" name="self.model.layers.1.self_attn.q_proj.weight/fq_weights_1" type="Multiply" version="opset1">
			<data auto_broadcast="numpy" />
			<input>
				<port id="0" precision="FP16">
					<dim>2048</dim>
					<dim>2048</dim>
				</port>
				<port id="1" precision="FP16">
					<dim>2048</dim>
					<dim>1</dim>
				</port>
			</input>
			<output>
				<port id="2" precision="FP16">
					<dim>2048</dim>
					<dim>2048</dim>
				</port>
			</output>
		</layer>
		<layer id="382" name="self.model.layers.1.self_attn.q_proj.weight/fq_weights_1/convert" type="Convert" version="opset1">
			<data destination_type="f32" />
			<input>
				<port id="0" precision="FP16">
					<dim>2048</dim>
					<dim>2048</dim>
				</port>
			</input>
			<output>
				<port id="1" precision="FP32">
					<dim>2048</dim>
					<dim>2048</dim>
				</port>
			</output>
		</layer>
		<layer id="383" name="__module.model.layers.1.self_attn.q_proj/aten::linear/MatMul" type="MatMul" version="opset1">
			<data transpose_a="false" transpose_b="true" />
			<input>
				<port id="0" precision="FP32">
					<dim>-1</dim>
					<dim>-1</dim>
					<dim>2048</dim>
				</port>
				<port id="1" precision="FP32">
					<dim>2048</dim>
					<dim>2048</dim>
				</port>
			</input>
			<output>
				<port id="2" precision="FP32" names="478,query_states.3">
					<dim>-1</dim>
					<dim>-1</dim>
					<dim>2048</dim>
				</port>
			</output>
		</layer>
		<layer id="384" name="Constant_125624" type="Const" version="opset1">
			<data element_type="i64" shape="4" offset="69848880" size="32" />
			<output>
				<port id="0" precision="I64">
					<dim>4</dim>
				</port>
			</output>
		</layer>
		<layer id="385" name="__module.model.layers.1.self_attn/aten::view/Reshape" type="Reshape" version="opset1">
			<data special_zero="true" />
			<input>
				<port id="0" precision="FP32">
					<dim>-1</dim>
					<dim>-1</dim>
					<dim>2048</dim>
				</port>
				<port id="1" precision="I64">
					<dim>4</dim>
				</port>
			</input>
			<output>
				<port id="2" precision="FP32" names="484">
					<dim>-1</dim>
					<dim>-1</dim>
					<dim>32</dim>
					<dim>64</dim>
				</port>
			</output>
		</layer>
		<layer id="386" name="__module.model.layers.1.self_attn/aten::transpose/ScatterElementsUpdate" type="Const" version="opset1">
			<data element_type="i32" shape="4" offset="69848912" size="16" />
			<output>
				<port id="0" precision="I32">
					<dim>4</dim>
				</port>
			</output>
		</layer>
		<layer id="387" name="__module.model.layers.1.self_attn/aten::transpose/Transpose" type="Transpose" version="opset1">
			<input>
				<port id="0" precision="FP32">
					<dim>-1</dim>
					<dim>-1</dim>
					<dim>32</dim>
					<dim>64</dim>
				</port>
				<port id="1" precision="I32">
					<dim>4</dim>
				</port>
			</input>
			<output>
				<port id="2" precision="FP32" names="485,q.3">
					<dim>-1</dim>
					<dim>32</dim>
					<dim>-1</dim>
					<dim>64</dim>
				</port>
			</output>
		</layer>
		<layer id="388" name="__module.model.layers.1.self_attn.rotary_emb/aten::to/Convert" type="Const" version="opset1">
			<data element_type="f32" shape="1, 32, 1" offset="69848928" size="128" />
			<output>
				<port id="0" precision="FP32" names="496">
					<dim>1</dim>
					<dim>32</dim>
					<dim>1</dim>
				</port>
			</output>
		</layer>
		<layer id="389" name="__module.model.layers.1.self_attn.rotary_emb/aten::expand/Broadcast" type="Broadcast" version="opset3">
			<data mode="bidirectional" />
			<input>
				<port id="0" precision="FP32">
					<dim>1</dim>
					<dim>32</dim>
					<dim>1</dim>
				</port>
				<port id="1" precision="I64">
					<dim>3</dim>
				</port>
			</input>
			<output>
				<port id="2" precision="FP32" names="499,504,inv_freq_expanded.5,inv_freq_expanded.7">
					<dim>-1</dim>
					<dim>32</dim>
					<dim>1</dim>
				</port>
			</output>
		</layer>
		<layer id="390" name="__module.model.layers.1.self_attn.rotary_emb/aten::matmul/MatMul" type="MatMul" version="opset1">
			<data transpose_a="false" transpose_b="false" />
			<input>
				<port id="0" precision="FP32">
					<dim>-1</dim>
					<dim>32</dim>
					<dim>1</dim>
				</port>
				<port id="1" precision="FP32">
					<dim>-1</dim>
					<dim>1</dim>
					<dim>-1</dim>
				</port>
			</input>
			<output>
				<port id="2" precision="FP32" names="506">
					<dim>-1</dim>
					<dim>32</dim>
					<dim>-1</dim>
				</port>
			</output>
		</layer>
		<layer id="391" name="__module.model.layers.1.self_attn.rotary_emb/aten::transpose/ScatterElementsUpdate" type="Const" version="opset1">
			<data element_type="i32" shape="3" offset="69849064" size="12" />
			<output>
				<port id="0" precision="I32">
					<dim>3</dim>
				</port>
			</output>
		</layer>
		<layer id="392" name="__module.model.layers.1.self_attn.rotary_emb/aten::transpose/Transpose" type="Transpose" version="opset1">
			<input>
				<port id="0" precision="FP32">
					<dim>-1</dim>
					<dim>32</dim>
					<dim>-1</dim>
				</port>
				<port id="1" precision="I32">
					<dim>3</dim>
				</port>
			</input>
			<output>
				<port id="2" precision="FP32" names="507">
					<dim>-1</dim>
					<dim>-1</dim>
					<dim>32</dim>
				</port>
			</output>
		</layer>
		<layer id="393" name="__module.model.layers.1.self_attn.rotary_emb/aten::cat/Concat" type="Concat" version="opset1">
			<data axis="-1" />
			<input>
				<port id="0" precision="FP32">
					<dim>-1</dim>
					<dim>-1</dim>
					<dim>32</dim>
				</port>
				<port id="1" precision="FP32">
					<dim>-1</dim>
					<dim>-1</dim>
					<dim>32</dim>
				</port>
			</input>
			<output>
				<port id="2" precision="FP32" names="509,emb.3">
					<dim>-1</dim>
					<dim>-1</dim>
					<dim>64</dim>
				</port>
			</output>
		</layer>
		<layer id="394" name="__module.model.layers.1.self_attn.rotary_emb/aten::cos/Cos" type="Cos" version="opset1">
			<input>
				<port id="0" precision="FP32">
					<dim>-1</dim>
					<dim>-1</dim>
					<dim>64</dim>
				</port>
			</input>
			<output>
				<port id="1" precision="FP32" names="510,512,515,cos.7,cos.9">
					<dim>-1</dim>
					<dim>-1</dim>
					<dim>64</dim>
				</port>
			</output>
		</layer>
		<layer id="395" name="__module.model.layers.1.self_attn/aten::unsqueeze/Unsqueeze" type="Unsqueeze" version="opset1">
			<input>
				<port id="0" precision="FP32">
					<dim>-1</dim>
					<dim>-1</dim>
					<dim>64</dim>
				</port>
				<port id="1" precision="I64" />
			</input>
			<output>
				<port id="2" precision="FP32" names="517,cos.11">
					<dim>-1</dim>
					<dim>1</dim>
					<dim>-1</dim>
					<dim>64</dim>
				</port>
			</output>
		</layer>
		<layer id="396" name="__module.model.layers.1.self_attn/aten::mul/Multiply" type="Multiply" version="opset1">
			<data auto_broadcast="numpy" />
			<input>
				<port id="0" precision="FP32">
					<dim>-1</dim>
					<dim>32</dim>
					<dim>-1</dim>
					<dim>64</dim>
				</port>
				<port id="1" precision="FP32">
					<dim>-1</dim>
					<dim>1</dim>
					<dim>-1</dim>
					<dim>64</dim>
				</port>
			</input>
			<output>
				<port id="2" precision="FP32" names="519">
					<dim>-1</dim>
					<dim>32</dim>
					<dim>-1</dim>
					<dim>64</dim>
				</port>
			</output>
		</layer>
		<layer id="397" name="Constant_104525" type="Const" version="opset1">
			<data element_type="i64" shape="4" offset="69849076" size="32" />
			<output>
				<port id="0" precision="I64">
					<dim>4</dim>
				</port>
			</output>
		</layer>
		<layer id="398" name="Constant_104524" type="Const" version="opset1">
			<data element_type="i64" shape="1" offset="69849108" size="8" />
			<output>
				<port id="0" precision="I64">
					<dim>1</dim>
				</port>
			</output>
		</layer>
…
		<edge from-layer="4409" from-port="2" to-layer="4512" to-port="0" />
		<edge from-layer="4410" from-port="1" to-layer="4412" to-port="0" />
		<edge from-layer="4411" from-port="0" to-layer="4412" to-port="2" />
		<edge from-layer="4412" from-port="3" to-layer="4449" to-port="0" />
		<edge from-layer="4412" from-port="3" to-layer="4451" to-port="0" />
		<edge from-layer="4413" from-port="0" to-layer="4414" to-port="0" />
		<edge from-layer="4414" from-port="1" to-layer="4417" to-port="0" />
		<edge from-layer="4415" from-port="0" to-layer="4416" to-port="0" />
		<edge from-layer="4416" from-port="1" to-layer="4417" to-port="1" />
		<edge from-layer="4417" from-port="2" to-layer="4419" to-port="0" />
		<edge from-layer="4418" from-port="0" to-layer="4419" to-port="1" />
		<edge from-layer="4419" from-port="2" to-layer="4420" to-port="0" />
		<edge from-layer="4420" from-port="1" to-layer="4421" to-port="1" />
		<edge from-layer="4421" from-port="2" to-layer="4423" to-port="0" />
		<edge from-layer="4422" from-port="0" to-layer="4423" to-port="1" />
		<edge from-layer="4423" from-port="2" to-layer="4425" to-port="0" />
		<edge from-layer="4424" from-port="0" to-layer="4425" to-port="1" />
		<edge from-layer="4425" from-port="2" to-layer="4445" to-port="0" />
		<edge from-layer="4425" from-port="2" to-layer="4440" to-port="0" />
		<edge from-layer="4425" from-port="2" to-layer="4426" to-port="0" />
		<edge from-layer="4425" from-port="2" to-layer="4429" to-port="0" />
		<edge from-layer="4426" from-port="2" to-layer="4448" to-port="0" />
		<edge from-layer="4427" from-port="0" to-layer="4437" to-port="0" />
		<edge from-layer="4428" from-port="0" to-layer="4437" to-port="1" />
		<edge from-layer="4429" from-port="1" to-layer="4431" to-port="0" />
		<edge from-layer="4430" from-port="0" to-layer="4431" to-port="2" />
		<edge from-layer="4431" from-port="3" to-layer="4432" to-port="0" />
		<edge from-layer="4432" from-port="2" to-layer="4433" to-port="0" />
		<edge from-layer="4433" from-port="1" to-layer="4435" to-port="0" />
		<edge from-layer="4434" from-port="0" to-layer="4435" to-port="1" />
		<edge from-layer="4435" from-port="2" to-layer="4437" to-port="2" />
		<edge from-layer="4436" from-port="0" to-layer="4437" to-port="3" />
		<edge from-layer="4437" from-port="4" to-layer="4440" to-port="1" />
		<edge from-layer="4437" from-port="4" to-layer="4445" to-port="2" />
		<edge from-layer="4438" from-port="0" to-layer="4440" to-port="2" />
		<edge from-layer="4439" from-port="0" to-layer="4440" to-port="3" />
		<edge from-layer="4440" from-port="4" to-layer="4442" to-port="0" />
		<edge from-layer="4441" from-port="0" to-layer="4442" to-port="1" />
		<edge from-layer="4442" from-port="2" to-layer="4446" to-port="0" />
		<edge from-layer="4443" from-port="0" to-layer="4445" to-port="1" />
		<edge from-layer="4444" from-port="0" to-layer="4445" to-port="3" />
		<edge from-layer="4445" from-port="4" to-layer="4446" to-port="1" />
		<edge from-layer="4446" from-port="2" to-layer="4447" to-port="0" />
		<edge from-layer="4447" from-port="2" to-layer="4448" to-port="1" />
		<edge from-layer="4448" from-port="2" to-layer="4449" to-port="1" />
		<edge from-layer="4448" from-port="2" to-layer="4503" to-port="0" />
		<edge from-layer="4449" from-port="2" to-layer="4450" to-port="0" />
		<edge from-layer="4449" from-port="2" to-layer="4455" to-port="0" />
		<edge from-layer="4449" from-port="2" to-layer="4876" to-port="0" />
		<edge from-layer="4450" from-port="2" to-layer="4464" to-port="0" />
		<edge from-layer="4451" from-port="1" to-layer="4454" to-port="0" />
		<edge from-layer="4451" from-port="1" to-layer="4502" to-port="0" />
		<edge from-layer="4452" from-port="0" to-layer="4454" to-port="1" />
		<edge from-layer="4453" from-port="0" to-layer="4454" to-port="2" />
		<edge from-layer="4454" from-port="3" to-layer="4463" to-port="0" />
		<edge from-layer="4455" from-port="1" to-layer="4458" to-port="0" />
		<edge from-layer="4455" from-port="1" to-layer="4462" to-port="0" />
		<edge from-layer="4456" from-port="0" to-layer="4458" to-port="1" />
		<edge from-layer="4457" from-port="0" to-layer="4458" to-port="2" />
		<edge from-layer="4458" from-port="3" to-layer="4463" to-port="1" />
		<edge from-layer="4459" from-port="0" to-layer="4463" to-port="2" />
		<edge from-layer="4460" from-port="0" to-layer="4462" to-port="1" />
		<edge from-layer="4461" from-port="0" to-layer="4462" to-port="2" />
		<edge from-layer="4462" from-port="3" to-layer="4463" to-port="3" />
		<edge from-layer="4463" from-port="4" to-layer="4464" to-port="1" />
		<edge from-layer="4464" from-port="2" to-layer="4466" to-port="0" />
		<edge from-layer="4465" from-port="0" to-layer="4466" to-port="1" />
		<edge from-layer="4466" from-port="2" to-layer="4512" to-port="1" />
		<edge from-layer="4467" from-port="1" to-layer="4469" to-port="0" />
		<edge from-layer="4468" from-port="0" to-layer="4469" to-port="2" />
		<edge from-layer="4469" from-port="3" to-layer="4483" to-port="0" />
		<edge from-layer="4470" from-port="0" to-layer="4471" to-port="0" />
		<edge from-layer="4471" from-port="1" to-layer="4474" to-port="0" />
		<edge from-layer="4472" from-port="0" to-layer="4473" to-port="0" />
		<edge from-layer="4473" from-port="1" to-layer="4474" to-port="1" />
		<edge from-layer="4474" from-port="2" to-layer="4476" to-port="0" />
		<edge from-layer="4475" from-port="0" to-layer="4476" to-port="1" />
		<edge from-layer="4476" from-port="2" to-layer="4477" to-port="0" />
		<edge from-layer="4477" from-port="1" to-layer="4478" to-port="1" />
		<edge from-layer="4478" from-port="2" to-layer="4480" to-port="0" />
		<edge from-layer="4479" from-port="0" to-layer="4480" to-port="1" />
		<edge from-layer="4480" from-port="2" to-layer="4482" to-port="0" />
		<edge from-layer="4481" from-port="0" to-layer="4482" to-port="1" />
		<edge from-layer="4482" from-port="2" to-layer="4483" to-port="1" />
		<edge from-layer="4483" from-port="2" to-layer="4484" to-port="0" />
		<edge from-layer="4483" from-port="2" to-layer="4485" to-port="0" />
		<edge from-layer="4483" from-port="2" to-layer="4875" to-port="0" />
		<edge from-layer="4484" from-port="2" to-layer="4494" to-port="0" />
		<edge from-layer="4485" from-port="1" to-layer="4492" to-port="0" />
		<edge from-layer="4485" from-port="1" to-layer="4488" to-port="0" />
		<edge from-layer="4486" from-port="0" to-layer="4488" to-port="1" />
		<edge from-layer="4487" from-port="0" to-layer="4488" to-port="2" />
		<edge from-layer="4488" from-port="3" to-layer="4493" to-port="1" />
		<edge from-layer="4489" from-port="0" to-layer="4493" to-port="2" />
		<edge from-layer="4490" from-port="0" to-layer="4492" to-port="1" />
		<edge from-layer="4491" from-port="0" to-layer="4492" to-port="2" />
		<edge from-layer="4492" from-port="3" to-layer="4493" to-port="3" />
		<edge from-layer="4493" from-port="4" to-layer="4494" to-port="1" />
		<edge from-layer="4494" from-port="2" to-layer="4496" to-port="0" />
		<edge from-layer="4495" from-port="0" to-layer="4496" to-port="1" />
		<edge from-layer="4496" from-port="2" to-layer="4512" to-port="2" />
		<edge from-layer="4497" from-port="0" to-layer="4511" to-port="1" />
		<edge from-layer="4498" from-port="0" to-layer="4509" to-port="0" />
		<edge from-layer="4499" from-port="0" to-layer="4509" to-port="1" />
		<edge from-layer="4500" from-port="0" to-layer="4502" to-port="1" />
		<edge from-layer="4501" from-port="0" to-layer="4502" to-port="2" />
		<edge from-layer="4502" from-port="3" to-layer="4507" to-port="0" />
		<edge from-layer="4503" from-port="1" to-layer="4506" to-port="0" />
		<edge from-layer="4504" from-port="0" to-layer="4506" to-port="1" />
		<edge from-layer="4505" from-port="0" to-layer="4506" to-port="2" />
		<edge from-layer="4506" from-port="3" to-layer="4507" to-port="1" />
		<edge from-layer="4507" from-port="2" to-layer="4509" to-port="2" />
		<edge from-layer="4508" from-port="0" to-layer="4509" to-port="3" />
		<edge from-layer="4509" from-port="4" to-layer="4511" to-port="2" />
		<edge from-layer="4510" from-port="0" to-layer="4511" to-port="3" />
		<edge from-layer="4511" from-port="4" to-layer="4512" to-port="3" />
		<edge from-layer="4512" from-port="4" to-layer="4514" to-port="0" />
		<edge from-layer="4513" from-port="0" to-layer="4514" to-port="1" />
		<edge from-layer="4514" from-port="2" to-layer="4520" to-port="0" />
		<edge from-layer="4515" from-port="1" to-layer="4518" to-port="0" />
		<edge from-layer="4516" from-port="0" to-layer="4518" to-port="1" />
		<edge from-layer="4517" from-port="0" to-layer="4518" to-port="2" />
		<edge from-layer="4518" from-port="3" to-layer="4519" to-port="0" />
		<edge from-layer="4519" from-port="2" to-layer="4520" to-port="1" />
		<edge from-layer="4520" from-port="2" to-layer="4529" to-port="0" />
		<edge from-layer="4521" from-port="0" to-layer="4522" to-port="0" />
		<edge from-layer="4522" from-port="1" to-layer="4525" to-port="0" />
		<edge from-layer="4523" from-port="0" to-layer="4524" to-port="0" />
		<edge from-layer="4524" from-port="1" to-layer="4525" to-port="1" />
		<edge from-layer="4525" from-port="2" to-layer="4527" to-port="0" />
		<edge from-layer="4526" from-port="0" to-layer="4527" to-port="1" />
		<edge from-layer="4527" from-port="2" to-layer="4528" to-port="0" />
		<edge from-layer="4528" from-port="1" to-layer="4529" to-port="1" />
		<edge from-layer="4529" from-port="2" to-layer="4530" to-port="1" />
		<edge from-layer="4530" from-port="2" to-layer="4572" to-port="0" />
		<edge from-layer="4530" from-port="2" to-layer="4534" to-port="0" />
		<edge from-layer="4530" from-port="2" to-layer="4541" to-port="0" />
		<edge from-layer="4531" from-port="0" to-layer="4542" to-port="0" />
		<edge from-layer="4532" from-port="0" to-layer="4540" to-port="0" />
		<edge from-layer="4533" from-port="0" to-layer="4534" to-port="1" />
		<edge from-layer="4534" from-port="2" to-layer="4536" to-port="0" />
		<edge from-layer="4535" from-port="0" to-layer="4536" to-port="1" />
		<edge from-layer="4536" from-port="2" to-layer="4538" to-port="0" />
		<edge from-layer="4537" from-port="0" to-layer="4538" to-port="1" />
		<edge from-layer="4538" from-port="2" to-layer="4539" to-port="0" />
		<edge from-layer="4539" from-port="1" to-layer="4540" to-port="1" />
		<edge from-layer="4540" from-port="2" to-layer="4541" to-port="1" />
		<edge from-layer="4541" from-port="2" to-layer="4542" to-port="1" />
		<edge from-layer="4542" from-port="2" to-layer="4561" to-port="0" />
		<edge from-layer="4542" from-port="2" to-layer="4551" to-port="0" />
		<edge from-layer="4543" from-port="0" to-layer="4544" to-port="0" />
		<edge from-layer="4544" from-port="1" to-layer="4547" to-port="0" />
		<edge from-layer="4545" from-port="0" to-layer="4546" to-port="0" />
		<edge from-layer="4546" from-port="1" to-layer="4547" to-port="1" />
		<edge from-layer="4547" from-port="2" to-layer="4549" to-port="0" />
		<edge from-layer="4548" from-port="0" to-layer="4549" to-port="1" />
		<edge from-layer="4549" from-port="2" to-layer="4550" to-port="0" />
		<edge from-layer="4550" from-port="1" to-layer="4551" to-port="1" />
		<edge from-layer="4551" from-port="2" to-layer="4552" to-port="0" />
		<edge from-layer="4552" from-port="1" to-layer="4562" to-port="0" />
		<edge from-layer="4553" from-port="0" to-layer="4554" to-port="0" />
		<edge from-layer="4554" from-port="1" to-layer="4557" to-port="0" />
		<edge from-layer="4555" from-port="0" to-layer="4556" to-port="0" />
		<edge from-layer="4556" from-port="1" to-layer="4557" to-port="1" />
		<edge from-layer="4557" from-port="2" to-layer="4559" to-port="0" />
		<edge from-layer="4558" from-port="0" to-layer="4559" to-port="1" />
		<edge from-layer="4559" from-port="2" to-layer="4560" to-port="0" />
		<edge from-layer="4560" from-port="1" to-layer="4561" to-port="1" />
		<edge from-layer="4561" from-port="2" to-layer="4562" to-port="1" />
		<edge from-layer="4562" from-port="2" to-layer="4571" to-port="0" />
		<edge from-layer="4563" from-port="0" to-layer="4564" to-port="0" />
		<edge from-layer="4564" from-port="1" to-layer="4567" to-port="0" />
		<edge from-layer="4565" from-port="0" to-layer="4566" to-port="0" />
		<edge from-layer="4566" from-port="1" to-layer="4567" to-port="1" />
		<edge from-layer="4567" from-port="2" to-layer="4569" to-port="0" />
		<edge from-layer="4568" from-port="0" to-layer="4569" to-port="1" />
		<edge from-layer="4569" from-port="2" to-layer="4570" to-port="0" />
		<edge from-layer="4570" from-port="1" to-layer="4571" to-port="1" />
		<edge from-layer="4571" from-port="2" to-layer="4572" to-port="1" />
		<edge from-layer="4572" from-port="2" to-layer="4576" to-port="0" />
		<edge from-layer="4572" from-port="2" to-layer="4583" to-port="0" />
		<edge from-layer="4572" from-port="2" to-layer="4751" to-port="0" />
		<edge from-layer="4573" from-port="0" to-layer="4584" to-port="0" />
		<edge from-layer="4574" from-port="0" to-layer="4582" to-port="0" />
		<edge from-layer="4575" from-port="0" to-layer="4576" to-port="1" />
		<edge from-layer="4576" from-port="2" to-layer="4578" to-port="0" />
		<edge from-layer="4577" from-port="0" to-layer="4578" to-port="1" />
		<edge from-layer="4578" from-port="2" to-layer="4580" to-port="0" />
		<edge from-layer="4579" from-port="0" to-layer="4580" to-port="1" />
		<edge from-layer="4580" from-port="2" to-layer="4581" to-port="0" />
		<edge from-layer="4581" from-port="1" to-layer="4582" to-port="1" />
		<edge from-layer="4582" from-port="2" to-layer="4583" to-port="1" />
		<edge from-layer="4583" from-port="2" to-layer="4584" to-port="1" />
		<edge from-layer="4584" from-port="2" to-layer="4736" to-port="0" />
		<edge from-layer="4584" from-port="2" to-layer="4642" to-port="0" />
		<edge from-layer="4584" from-port="2" to-layer="4593" to-port="0" />
		<edge from-layer="4584" from-port="2" to-layer="4699" to-port="0" />
		<edge from-layer="4585" from-port="0" to-layer="4586" to-port="0" />
		<edge from-layer="4586" from-port="1" to-layer="4589" to-port="0" />
		<edge from-layer="4587" from-port="0" to-layer="4588" to-port="0" />
		<edge from-layer="4588" from-port="1" to-layer="4589" to-port="1" />
		<edge from-layer="4589" from-port="2" to-layer="4591" to-port="0" />
		<edge from-layer="4590" from-port="0" to-layer="4591" to-port="1" />
		<edge from-layer="4591" from-port="2" to-layer="4592" to-port="0" />
		<edge from-layer="4592" from-port="1" to-layer="4593" to-port="1" />
		<edge from-layer="4593" from-port="2" to-layer="4595" to-port="0" />
		<edge from-layer="4594" from-port="0" to-layer="4595" to-port="1" />
		<edge from-layer="4595" from-port="2" to-layer="4597" to-port="0" />
		<edge from-layer="4596" from-port="0" to-layer="4597" to-port="1" />
		<edge from-layer="4597" from-port="2" to-layer="4625" to-port="0" />
		<edge from-layer="4597" from-port="2" to-layer="4609" to-port="0" />
		<edge from-layer="4597" from-port="2" to-layer="4606" to-port="0" />
		<edge from-layer="4597" from-port="2" to-layer="4620" to-port="0" />
		<edge from-layer="4598" from-port="0" to-layer="4599" to-port="0" />
		<edge from-layer="4599" from-port="2" to-layer="4600" to-port="0" />
		<edge from-layer="4600" from-port="2" to-layer="4602" to-port="0" />
		<edge from-layer="4601" from-port="0" to-layer="4602" to-port="1" />
		<edge from-layer="4602" from-port="2" to-layer="4603" to-port="0" />
		<edge from-layer="4602" from-port="2" to-layer="4603" to-port="1" />
		<edge from-layer="4603" from-port="2" to-layer="4627" to-port="0" />
		<edge from-layer="4603" from-port="2" to-layer="4604" to-port="0" />
		<edge from-layer="4604" from-port="1" to-layer="4605" to-port="0" />
		<edge from-layer="4605" from-port="2" to-layer="4647" to-port="1" />
		<edge from-layer="4605" from-port="2" to-layer="4606" to-port="1" />
		<edge from-layer="4606" from-port="2" to-layer="4630" to-port="0" />
		<edge from-layer="4607" from-port="0" to-layer="4617" to-port="0" />
		<edge from-layer="4608" from-port="0" to-layer="4617" to-port="1" />
		<edge from-layer="4609" from-port="1" to-layer="4611" to-port="0" />
		<edge from-layer="4610" from-port="0" to-layer="4611" to-port="2" />
		<edge from-layer="4611" from-port="3" to-layer="4612" to-port="0" />
		<edge from-layer="4612" from-port="2" to-layer="4613" to-port="0" />
		<edge from-layer="4613" from-port="1" to-layer="4615" to-port="0" />
		<edge from-layer="4614" from-port="0" to-layer="4615" to-port="1" />
		<edge from-layer="4615" from-port="2" to-layer="4617" to-port="2" />
		<edge from-layer="4616" from-port="0" to-layer="4617" to-port="3" />
		<edge from-layer="4617" from-port="4" to-layer="4620" to-port="1" />
		<edge from-layer="4617" from-port="4" to-layer="4625" to-port="2" />
		<edge from-layer="4618" from-port="0" to-layer="4620" to-port="2" />
		<edge from-layer="4619" from-port="0" to-layer="4620" to-port="3" />
		<edge from-layer="4620" from-port="4" to-layer="4622" to-port="0" />
		<edge from-layer="4621" from-port="0" to-layer="4622" to-port="1" />
		<edge from-layer="4622" from-port="2" to-layer="4626" to-port="0" />
		<edge from-layer="4623" from-port="0" to-layer="4625" to-port="1" />
		<edge from-layer="4624" from-port="0" to-layer="4625" to-port="3" />
		<edge from-layer="4625" from-port="4" to-layer="4626" to-port="1" />
		<edge from-layer="4626" from-port="2" to-layer="4629" to-port="0" />
		<edge from-layer="4627" from-port="1" to-layer="4628" to-port="0" />
		<edge from-layer="4628" from-port="2" to-layer="4668" to-port="1" />
		<edge from-layer="4628" from-port="2" to-layer="4629" to-port="1" />
		<edge from-layer="4629" from-port="2" to-layer="4630" to-port="1" />
		<edge from-layer="4630" from-port="2" to-layer="4733" to-port="0" />
		<edge from-layer="4631" from-port="1" to-layer="4633" to-port="0" />
		<edge from-layer="4632" from-port="0" to-layer="4633" to-port="2" />
		<edge from-layer="4633" from-port="3" to-layer="4672" to-port="0" />
		<edge from-layer="4633" from-port="3" to-layer="4670" to-port="0" />
		<edge from-layer="4634" from-port="0" to-layer="4635" to-port="0" />
		<edge from-layer="4635" from-port="1" to-layer="4638" to-port="0" />
		<edge from-layer="4636" from-port="0" to-layer="4637" to-port="0" />
		<edge from-layer="4637" from-port="1" to-layer="4638" to-port="1" />
		<edge from-layer="4638" from-port="2" to-layer="4640" to-port="0" />
		<edge from-layer="4639" from-port="0" to-layer="4640" to-port="1" />
		<edge from-layer="4640" from-port="2" to-layer="4641" to-port="0" />
		<edge from-layer="4641" from-port="1" to-layer="4642" to-port="1" />
		<edge from-layer="4642" from-port="2" to-layer="4644" to-port="0" />
		<edge from-layer="4643" from-port="0" to-layer="4644" to-port="1" />
		<edge from-layer="4644" from-port="2" to-layer="4646" to-port="0" />
		<edge from-layer="4645" from-port="0" to-layer="4646" to-port="1" />
		<edge from-layer="4646" from-port="2" to-layer="4647" to-port="0" />
		<edge from-layer="4646" from-port="2" to-layer="4650" to-port="0" />
		<edge from-layer="4646" from-port="2" to-layer="4666" to-port="0" />
		<edge from-layer="4646" from-port="2" to-layer="4661" to-port="0" />
		<edge from-layer="4647" from-port="2" to-layer="4669" to-port="0" />
		<edge from-layer="4648" from-port="0" to-layer="4658" to-port="0" />
		<edge from-layer="4649" from-port="0" to-layer="4658" to-port="1" />
		<edge from-layer="4650" from-port="1" to-layer="4652" to-port="0" />
		<edge from-layer="4651" from-port="0" to-layer="4652" to-port="2" />
		<edge from-layer="4652" from-port="3" to-layer="4653" to-port="0" />
		<edge from-layer="4653" from-port="2" to-layer="4654" to-port="0" />
		<edge from-layer="4654" from-port="1" to-layer="4656" to-port="0" />
		<edge from-layer="4655" from-port="0" to-layer="4656" to-port="1" />
		<edge from-layer="4656" from-port="2" to-layer="4658" to-port="2" />
		<edge from-layer="4657" from-port="0" to-layer="4658" to-port="3" />
		<edge from-layer="4658" from-port="4" to-layer="4661" to-port="1" />
		<edge from-layer="4658" from-port="4" to-layer="4666" to-port="2" />
		<edge from-layer="4659" from-port="0" to-layer="4661" to-port="2" />
		<edge from-layer="4660" from-port="0" to-layer="4661" to-port="3" />
		<edge from-layer="4661" from-port="4" to-layer="4663" to-port="0" />
		<edge from-layer="4662" from-port="0" to-layer="4663" to-port="1" />
		<edge from-layer="4663" from-port="2" to-layer="4667" to-port="0" />
		<edge from-layer="4664" from-port="0" to-layer="4666" to-port="1" />
		<edge from-layer="4665" from-port="0" to-layer="4666" to-port="3" />
		<edge from-layer="4666" from-port="4" to-layer="4667" to-port="1" />
		<edge from-layer="4667" from-port="2" to-layer="4668" to-port="0" />
		<edge from-layer="4668" from-port="2" to-layer="4669" to-port="1" />
		<edge from-layer="4669" from-port="2" to-layer="4670" to-port="1" />
		<edge from-layer="4669" from-port="2" to-layer="4724" to-port="0" />
		<edge from-layer="4670" from-port="2" to-layer="4872" to-port="0" />
		<edge from-layer="4670" from-port="2" to-layer="4671" to-port="0" />
		<edge from-layer="4670" from-port="2" to-layer="4676" to-port="0" />
		<edge from-layer="4671" from-port="2" to-layer="4685" to-port="0" />
		<edge from-layer="4672" from-port="1" to-layer="4675" to-port="0" />
		<edge from-layer="4672" from-port="1" to-layer="4723" to-port="0" />
		<edge from-layer="4673" from-port="0" to-layer="4675" to-port="1" />
		<edge from-layer="4674" from-port="0" to-layer="4675" to-port="2" />
		<edge from-layer="4675" from-port="3" to-layer="4684" to-port="0" />
		<edge from-layer="4676" from-port="1" to-layer="4679" to-port="0" />
		<edge from-layer="4676" from-port="1" to-layer="4683" to-port="0" />
		<edge from-layer="4677" from-port="0" to-layer="4679" to-port="1" />
		<edge from-layer="4678" from-port="0" to-layer="4679" to-port="2" />
		<edge from-layer="4679" from-port="3" to-layer="4684" to-port="1" />
		<edge from-layer="4680" from-port="0" to-layer="4684" to-port="2" />
		<edge from-layer="4681" from-port="0" to-layer="4683" to-port="1" />
		<edge from-layer="4682" from-port="0" to-layer="4683" to-port="2" />
		<edge from-layer="4683" from-port="3" to-layer="4684" to-port="3" />
		<edge from-layer="4684" from-port="4" to-layer="4685" to-port="1" />
		<edge from-layer="4685" from-port="2" to-layer="4687" to-port="0" />
		<edge from-layer="4686" from-port="0" to-layer="4687" to-port="1" />
		<edge from-layer="4687" from-port="2" to-layer="4733" to-port="1" />
		<edge from-layer="4688" from-port="1" to-layer="4690" to-port="0" />
		<edge from-layer="4689" from-port="0" to-layer="4690" to-port="2" />
		<edge from-layer="4690" from-port="3" to-layer="4704" to-port="0" />
		<edge from-layer="4691" from-port="0" to-layer="4692" to-port="0" />
		<edge from-layer="4692" from-port="1" to-layer="4695" to-port="0" />
		<edge from-layer="4693" from-port="0" to-layer="4694" to-port="0" />
		<edge from-layer="4694" from-port="1" to-layer="4695" to-port="1" />
		<edge from-layer="4695" from-port="2" to-layer="4697" to-port="0" />
		<edge from-layer="4696" from-port="0" to-layer="4697" to-port="1" />
		<edge from-layer="4697" from-port="2" to-layer="4698" to-port="0" />
		<edge from-layer="4698" from-port="1" to-layer="4699" to-port="1" />
		<edge from-layer="4699" from-port="2" to-layer="4701" to-port="0" />
		<edge from-layer="4700" from-port="0" to-layer="4701" to-port="1" />
		<edge from-layer="4701" from-port="2" to-layer="4703" to-port="0" />
		<edge from-layer="4702" from-port="0" to-layer="4703" to-port="1" />
		<edge from-layer="4703" from-port="2" to-layer="4704" to-port="1" />
		<edge from-layer="4704" from-port="2" to-layer="4871" to-port="0" />
		<edge from-layer="4704" from-port="2" to-layer="4705" to-port="0" />
		<edge from-layer="4704" from-port="2" to-layer="4706" to-port="0" />
		<edge from-layer="4705" from-port="2" to-layer="4715" to-port="0" />
		<edge from-layer="4706" from-port="1" to-layer="4713" to-port="0" />
		<edge from-layer="4706" from-port="1" to-layer="4709" to-port="0" />
		<edge from-layer="4707" from-port="0" to-layer="4709" to-port="1" />
		<edge from-layer="4708" from-port="0" to-layer="4709" to-port="2" />
		<edge from-layer="4709" from-port="3" to-layer="4714" to-port="1" />
		<edge from-layer="4710" from-port="0" to-layer="4714" to-port="2" />
		<edge from-layer="4711" from-port="0" to-layer="4713" to-port="1" />
		<edge from-layer="4712" from-port="0" to-layer="4713" to-port="2" />
		<edge from-layer="4713" from-port="3" to-layer="4714" to-port="3" />
		<edge from-layer="4714" from-port="4" to-layer="4715" to-port="1" />
		<edge from-layer="4715" from-port="2" to-layer="4717" to-port="0" />
		<edge from-layer="4716" from-port="0" to-layer="4717" to-port="1" />
		<edge from-layer="4717" from-port="2" to-layer="4733" to-port="2" />
		<edge from-layer="4718" from-port="0" to-layer="4732" to-port="1" />
		<edge from-layer="4719" from-port="0" to-layer="4730" to-port="0" />
		<edge from-layer="4720" from-port="0" to-layer="4730" to-port="1" />
		<edge from-layer="4721" from-port="0" to-layer="4723" to-port="1" />
		<edge from-layer="4722" from-port="0" to-layer="4723" to-port="2" />
		<edge from-layer="4723" from-port="3" to-layer="4728" to-port="0" />
		<edge from-layer="4724" from-port="1" to-layer="4727" to-port="0" />
		<edge from-layer="4725" from-port="0" to-layer="4727" to-port="1" />
		<edge from-layer="4726" from-port="0" to-layer="4727" to-port="2" />
		<edge from-layer="4727" from-port="3" to-layer="4728" to-port="1" />
		<edge from-layer="4728" from-port="2" to-layer="4730" to-port="2" />
		<edge from-layer="4729" from-port="0" to-layer="4730" to-port="3" />
		<edge from-layer="4730" from-port="4" to-layer="4732" to-port="2" />
		<edge from-layer="4731" from-port="0" to-layer="4732" to-port="3" />
		<edge from-layer="4732" from-port="4" to-layer="4733" to-port="3" />
		<edge from-layer="4733" from-port="4" to-layer="4735" to-port="0" />
		<edge from-layer="4734" from-port="0" to-layer="4735" to-port="1" />
		<edge from-layer="4735" from-port="2" to-layer="4741" to-port="0" />
		<edge from-layer="4736" from-port="1" to-layer="4739" to-port="0" />
		<edge from-layer="4737" from-port="0" to-layer="4739" to-port="1" />
		<edge from-layer="4738" from-port="0" to-layer="4739" to-port="2" />
		<edge from-layer="4739" from-port="3" to-layer="4740" to-port="0" />
		<edge from-layer="4740" from-port="2" to-layer="4741" to-port="1" />
		<edge from-layer="4741" from-port="2" to-layer="4750" to-port="0" />
		<edge from-layer="4742" from-port="0" to-layer="4743" to-port="0" />
		<edge from-layer="4743" from-port="1" to-layer="4746" to-port="0" />
		<edge from-layer="4744" from-port="0" to-layer="4745" to-port="0" />
		<edge from-layer="4745" from-port="1" to-layer="4746" to-port="1" />
		<edge from-layer="4746" from-port="2" to-layer="4748" to-port="0" />
		<edge from-layer="4747" from-port="0" to-layer="4748" to-port="1" />
		<edge from-layer="4748" from-port="2" to-layer="4749" to-port="0" />
		<edge from-layer="4749" from-port="1" to-layer="4750" to-port="1" />
		<edge from-layer="4750" from-port="2" to-layer="4751" to-port="1" />
		<edge from-layer="4751" from-port="2" to-layer="4793" to-port="0" />
		<edge from-layer="4751" from-port="2" to-layer="4762" to-port="0" />
		<edge from-layer="4751" from-port="2" to-layer="4755" to-port="0" />
		<edge from-layer="4752" from-port="0" to-layer="4763" to-port="0" />
		<edge from-layer="4753" from-port="0" to-layer="4761" to-port="0" />
		<edge from-layer="4754" from-port="0" to-layer="4755" to-port="1" />
		<edge from-layer="4755" from-port="2" to-layer="4757" to-port="0" />
		<edge from-layer="4756" from-port="0" to-layer="4757" to-port="1" />
		<edge from-layer="4757" from-port="2" to-layer="4759" to-port="0" />
		<edge from-layer="4758" from-port="0" to-layer="4759" to-port="1" />
		<edge from-layer="4759" from-port="2" to-layer="4760" to-port="0" />
		<edge from-layer="4760" from-port="1" to-layer="4761" to-port="1" />
		<edge from-layer="4761" from-port="2" to-layer="4762" to-port="1" />
		<edge from-layer="4762" from-port="2" to-layer="4763" to-port="1" />
		<edge from-layer="4763" from-port="2" to-layer="4782" to-port="0" />
		<edge from-layer="4763" from-port="2" to-layer="4772" to-port="0" />
		<edge from-layer="4764" from-port="0" to-layer="4765" to-port="0" />
		<edge from-layer="4765" from-port="1" to-layer="4768" to-port="0" />
		<edge from-layer="4766" from-port="0" to-layer="4767" to-port="0" />
		<edge from-layer="4767" from-port="1" to-layer="4768" to-port="1" />
		<edge from-layer="4768" from-port="2" to-layer="4770" to-port="0" />
		<edge from-layer="4769" from-port="0" to-layer="4770" to-port="1" />
		<edge from-layer="4770" from-port="2" to-layer="4771" to-port="0" />
		<edge from-layer="4771" from-port="1" to-layer="4772" to-port="1" />
		<edge from-layer="4772" from-port="2" to-layer="4773" to-port="0" />
		<edge from-layer="4773" from-port="1" to-layer="4783" to-port="0" />
		<edge from-layer="4774" from-port="0" to-layer="4775" to-port="0" />
		<edge from-layer="4775" from-port="1" to-layer="4778" to-port="0" />
		<edge from-layer="4776" from-port="0" to-layer="4777" to-port="0" />
		<edge from-layer="4777" from-port="1" to-layer="4778" to-port="1" />
		<edge from-layer="4778" from-port="2" to-layer="4780" to-port="0" />
		<edge from-layer="4779" from-port="0" to-layer="4780" to-port="1" />
		<edge from-layer="4780" from-port="2" to-layer="4781" to-port="0" />
		<edge from-layer="4781" from-port="1" to-layer="4782" to-port="1" />
		<edge from-layer="4782" from-port="2" to-layer="4783" to-port="1" />
		<edge from-layer="4783" from-port="2" to-layer="4792" to-port="0" />
		<edge from-layer="4784" from-port="0" to-layer="4785" to-port="0" />
		<edge from-layer="4785" from-port="1" to-layer="4788" to-port="0" />
		<edge from-layer="4786" from-port="0" to-layer="4787" to-port="0" />
		<edge from-layer="4787" from-port="1" to-layer="4788" to-port="1" />
		<edge from-layer="4788" from-port="2" to-layer="4790" to-port="0" />
		<edge from-layer="4789" from-port="0" to-layer="4790" to-port="1" />
		<edge from-layer="4790" from-port="2" to-layer="4791" to-port="0" />
		<edge from-layer="4791" from-port="1" to-layer="4792" to-port="1" />
		<edge from-layer="4792" from-port="2" to-layer="4793" to-port="1" />
		<edge from-layer="4793" from-port="2" to-layer="4995" to-port="0" />
		<edge from-layer="4793" from-port="2" to-layer="4796" to-port="0" />
		<edge from-layer="4793" from-port="2" to-layer="4803" to-port="0" />
		<edge from-layer="4794" from-port="0" to-layer="4802" to-port="0" />
		<edge from-layer="4795" from-port="0" to-layer="4796" to-port="1" />
		<edge from-layer="4796" from-port="2" to-layer="4798" to-port="0" />
		<edge from-layer="4797" from-port="0" to-layer="4798" to-port="1" />
		<edge from-layer="4798" from-port="2" to-layer="4800" to-port="0" />
		<edge from-layer="4799" from-port="0" to-layer="4800" to-port="1" />
		<edge from-layer="4800" from-port="2" to-layer="4801" to-port="0" />
		<edge from-layer="4801" from-port="1" to-layer="4802" to-port="1" />
		<edge from-layer="4802" from-port="2" to-layer="4803" to-port="1" />
		<edge from-layer="4803" from-port="2" to-layer="4804" to-port="1" />
		<edge from-layer="4804" from-port="2" to-layer="4980" to-port="0" />
		<edge from-layer="4804" from-port="2" to-layer="4813" to-port="0" />
		<edge from-layer="4804" from-port="2" to-layer="4831" to-port="0" />
		<edge from-layer="4804" from-port="2" to-layer="4908" to-port="0" />
		<edge from-layer="4805" from-port="0" to-layer="4806" to-port="0" />
		<edge from-layer="4806" from-port="1" to-layer="4809" to-port="0" />
		<edge from-layer="4807" from-port="0" to-layer="4808" to-port="0" />
		<edge from-layer="4808" from-port="1" to-layer="4809" to-port="1" />
		<edge from-layer="4809" from-port="2" to-layer="4811" to-port="0" />
		<edge from-layer="4810" from-port="0" to-layer="4811" to-port="1" />
		<edge from-layer="4811" from-port="2" to-layer="4812" to-port="0" />
		<edge from-layer="4812" from-port="1" to-layer="4813" to-port="1" />
		<edge from-layer="4813" from-port="2" to-layer="4815" to-port="0" />
		<edge from-layer="4814" from-port="0" to-layer="4815" to-port="1" />
		<edge from-layer="4815" from-port="2" to-layer="4817" to-port="0" />
		<edge from-layer="4816" from-port="0" to-layer="4817" to-port="1" />
		<edge from-layer="4817" from-port="2" to-layer="4818" to-port="1" />
		<edge from-layer="4818" from-port="2" to-layer="4819" to-port="0" />
		<edge from-layer="4818" from-port="2" to-layer="4954" to-port="0" />
		<edge from-layer="4818" from-port="2" to-layer="4953" to-port="0" />
		<edge from-layer="4820" from-port="1" to-layer="4822" to-port="0" />
		<edge from-layer="4821" from-port="0" to-layer="4822" to-port="2" />
		<edge from-layer="4822" from-port="3" to-layer="4937" to-port="0" />
		<edge from-layer="4822" from-port="3" to-layer="4869" to-port="0" />
		<edge from-layer="4823" from-port="0" to-layer="4824" to-port="0" />
		<edge from-layer="4824" from-port="1" to-layer="4827" to-port="0" />
		<edge from-layer="4825" from-port="0" to-layer="4826" to-port="0" />
		<edge from-layer="4826" from-port="1" to-layer="4827" to-port="1" />
		<edge from-layer="4827" from-port="2" to-layer="4829" to-port="0" />
		<edge from-layer="4828" from-port="0" to-layer="4829" to-port="1" />
		<edge from-layer="4829" from-port="2" to-layer="4830" to-port="0" />
		<edge from-layer="4830" from-port="1" to-layer="4831" to-port="1" />
		<edge from-layer="4831" from-port="2" to-layer="4833" to-port="0" />
		<edge from-layer="4832" from-port="0" to-layer="4833" to-port="1" />
		<edge from-layer="4833" from-port="2" to-layer="4835" to-port="0" />
		<edge from-layer="4834" from-port="0" to-layer="4835" to-port="1" />
		<edge from-layer="4835" from-port="2" to-layer="4858" to-port="0" />
		<edge from-layer="4835" from-port="2" to-layer="4847" to-port="0" />
		<edge from-layer="4835" from-port="2" to-layer="4844" to-port="0" />
		<edge from-layer="4835" from-port="2" to-layer="4863" to-port="0" />
		<edge from-layer="4836" from-port="0" to-layer="4837" to-port="0" />
		<edge from-layer="4837" from-port="2" to-layer="4838" to-port="0" />
		<edge from-layer="4838" from-port="2" to-layer="4840" to-port="0" />
		<edge from-layer="4839" from-port="0" to-layer="4840" to-port="1" />
		<edge from-layer="4840" from-port="2" to-layer="4841" to-port="0" />
		<edge from-layer="4840" from-port="2" to-layer="4841" to-port="1" />
		<edge from-layer="4841" from-port="2" to-layer="4865" to-port="0" />
		<edge from-layer="4841" from-port="2" to-layer="4842" to-port="0" />
		<edge from-layer="4842" from-port="1" to-layer="4843" to-port="0" />
		<edge from-layer="4843" from-port="2" to-layer="4844" to-port="1" />
		<edge from-layer="4843" from-port="2" to-layer="4913" to-port="1" />
		<edge from-layer="4844" from-port="2" to-layer="4868" to-port="0" />
		<edge from-layer="4845" from-port="0" to-layer="4855" to-port="0" />
		<edge from-layer="4846" from-port="0" to-layer="4855" to-port="1" />
		<edge from-layer="4847" from-port="1" to-layer="4849" to-port="0" />
		<edge from-layer="4848" from-port="0" to-layer="4849" to-port="2" />
		<edge from-layer="4849" from-port="3" to-layer="4850" to-port="0" />
		<edge from-layer="4850" from-port="2" to-layer="4851" to-port="0" />
		<edge from-layer="4851" from-port="1" to-layer="4853" to-port="0" />
		<edge from-layer="4852" from-port="0" to-layer="4853" to-port="1" />
		<edge from-layer="4853" from-port="2" to-layer="4855" to-port="2" />
		<edge from-layer="4854" from-port="0" to-layer="4855" to-port="3" />
		<edge from-layer="4855" from-port="4" to-layer="4863" to-port="2" />
		<edge from-layer="4855" from-port="4" to-layer="4858" to-port="1" />
		<edge from-layer="4856" from-port="0" to-layer="4858" to-port="2" />
		<edge from-layer="4857" from-port="0" to-layer="4858" to-port="3" />
		<edge from-layer="4858" from-port="4" to-layer="4860" to-port="0" />
		<edge from-layer="4859" from-port="0" to-layer="4860" to-port="1" />
		<edge from-layer="4860" from-port="2" to-layer="4864" to-port="0" />
		<edge from-layer="4861" from-port="0" to-layer="4863" to-port="1" />
		<edge from-layer="4862" from-port="0" to-layer="4863" to-port="3" />
		<edge from-layer="4863" from-port="4" to-layer="4864" to-port="1" />
		<edge from-layer="4864" from-port="2" to-layer="4867" to-port="0" />
		<edge from-layer="4865" from-port="1" to-layer="4866" to-port="0" />
		<edge from-layer="4866" from-port="2" to-layer="4934" to-port="1" />
		<edge from-layer="4866" from-port="2" to-layer="4867" to-port="1" />
		<edge from-layer="4867" from-port="2" to-layer="4868" to-port="1" />
		<edge from-layer="4868" from-port="2" to-layer="4869" to-port="1" />
		<edge from-layer="4869" from-port="2" to-layer="4936" to-port="0" />
		<edge from-layer="4869" from-port="2" to-layer="4941" to-port="0" />
		<edge from-layer="4869" from-port="2" to-layer="4870" to-port="0" />
		<edge from-layer="4899" from-port="0" to-layer="5048" to-port="0" />
		<edge from-layer="4900" from-port="0" to-layer="4901" to-port="0" />
		<edge from-layer="4901" from-port="1" to-layer="4904" to-port="0" />
		<edge from-layer="4902" from-port="0" to-layer="4903" to-port="0" />
		<edge from-layer="4903" from-port="1" to-layer="4904" to-port="1" />
		<edge from-layer="4904" from-port="2" to-layer="4906" to-port="0" />
		<edge from-layer="4905" from-port="0" to-layer="4906" to-port="1" />
		<edge from-layer="4906" from-port="2" to-layer="4907" to-port="0" />
		<edge from-layer="4907" from-port="1" to-layer="4908" to-port="1" />
		<edge from-layer="4908" from-port="2" to-layer="4910" to-port="0" />
		<edge from-layer="4909" from-port="0" to-layer="4910" to-port="1" />
		<edge from-layer="4910" from-port="2" to-layer="4912" to-port="0" />
		<edge from-layer="4911" from-port="0" to-layer="4912" to-port="1" />
		<edge from-layer="4912" from-port="2" to-layer="4916" to-port="0" />
		<edge from-layer="4912" from-port="2" to-layer="4932" to-port="0" />
		<edge from-layer="4912" from-port="2" to-layer="4927" to-port="0" />
		<edge from-layer="4912" from-port="2" to-layer="4913" to-port="0" />
		<edge from-layer="4913" from-port="2" to-layer="4935" to-port="0" />
		<edge from-layer="4914" from-port="0" to-layer="4924" to-port="0" />
		<edge from-layer="4915" from-port="0" to-layer="4924" to-port="1" />
		<edge from-layer="4916" from-port="1" to-layer="4918" to-port="0" />
		<edge from-layer="4917" from-port="0" to-layer="4918" to-port="2" />
		<edge from-layer="4918" from-port="3" to-layer="4919" to-port="0" />
		<edge from-layer="4919" from-port="2" to-layer="4920" to-port="0" />
		<edge from-layer="4920" from-port="1" to-layer="4922" to-port="0" />
		<edge from-layer="4921" from-port="0" to-layer="4922" to-port="1" />
		<edge from-layer="4922" from-port="2" to-layer="4924" to-port="2" />
		<edge from-layer="4923" from-port="0" to-layer="4924" to-port="3" />
		<edge from-layer="4924" from-port="4" to-layer="4932" to-port="2" />
		<edge from-layer="4924" from-port="4" to-layer="4927" to-port="1" />
		<edge from-layer="4925" from-port="0" to-layer="4927" to-port="2" />
		<edge from-layer="4926" from-port="0" to-layer="4927" to-port="3" />
		<edge from-layer="4927" from-port="4" to-layer="4929" to-port="0" />
		<edge from-layer="4928" from-port="0" to-layer="4929" to-port="1" />
		<edge from-layer="4929" from-port="2" to-layer="4933" to-port="0" />
		<edge from-layer="4930" from-port="0" to-layer="4932" to-port="1" />
		<edge from-layer="4931" from-port="0" to-layer="4932" to-port="3" />
		<edge from-layer="4932" from-port="4" to-layer="4933" to-port="1" />
		<edge from-layer="4933" from-port="2" to-layer="4934" to-port="0" />
		<edge from-layer="4934" from-port="2" to-layer="4935" to-port="1" />
		<edge from-layer="4935" from-port="2" to-layer="4977" to-port="0" />
		<edge from-layer="4936" from-port="2" to-layer="4950" to-port="0" />
		<edge from-layer="4937" from-port="1" to-layer="4940" to-port="0" />
		<edge from-layer="4938" from-port="0" to-layer="4940" to-port="1" />
		<edge from-layer="4939" from-port="0" to-layer="4940" to-port="2" />
		<edge from-layer="4940" from-port="3" to-layer="4949" to-port="0" />
		<edge from-layer="4941" from-port="1" to-layer="4944" to-port="0" />
		<edge from-layer="4941" from-port="1" to-layer="4948" to-port="0" />
		<edge from-layer="4942" from-port="0" to-layer="4944" to-port="1" />
		<edge from-layer="4943" from-port="0" to-layer="4944" to-port="2" />
		<edge from-layer="4944" from-port="3" to-layer="4949" to-port="1" />
		<edge from-layer="4945" from-port="0" to-layer="4949" to-port="2" />
		<edge from-layer="4946" from-port="0" to-layer="4948" to-port="1" />
		<edge from-layer="4947" from-port="0" to-layer="4948" to-port="2" />
		<edge from-layer="4948" from-port="3" to-layer="4949" to-port="3" />
		<edge from-layer="4949" from-port="4" to-layer="4950" to-port="1" />
		<edge from-layer="4950" from-port="2" to-layer="4952" to-port="0" />
		<edge from-layer="4951" from-port="0" to-layer="4952" to-port="1" />
		<edge from-layer="4952" from-port="2" to-layer="4977" to-port="1" />
		<edge from-layer="4953" from-port="2" to-layer="4963" to-port="0" />
		<edge from-layer="4954" from-port="1" to-layer="4961" to-port="0" />
		<edge from-layer="4954" from-port="1" to-layer="4957" to-port="0" />
		<edge from-layer="4955" from-port="0" to-layer="4957" to-port="1" />
		<edge from-layer="4956" from-port="0" to-layer="4957" to-port="2" />
		<edge from-layer="4957" from-port="3" to-layer="4962" to-port="1" />
		<edge from-layer="4958" from-port="0" to-layer="4962" to-port="2" />
		<edge from-layer="4959" from-port="0" to-layer="4961" to-port="1" />
		<edge from-layer="4960" from-port="0" to-layer="4961" to-port="2" />
		<edge from-layer="4961" from-port="3" to-layer="4962" to-port="3" />
		<edge from-layer="4962" from-port="4" to-layer="4963" to-port="1" />
		<edge from-layer="4963" from-port="2" to-layer="4965" to-port="0" />
		<edge from-layer="4964" from-port="0" to-layer="4965" to-port="1" />
		<edge from-layer="4965" from-port="2" to-layer="4977" to-port="2" />
		<edge from-layer="4966" from-port="0" to-layer="4976" to-port="1" />
		<edge from-layer="4967" from-port="0" to-layer="4974" to-port="0" />
		<edge from-layer="4968" from-port="0" to-layer="4974" to-port="1" />
		<edge from-layer="4969" from-port="0" to-layer="4971" to-port="1" />
		<edge from-layer="4970" from-port="0" to-layer="4971" to-port="2" />
		<edge from-layer="4971" from-port="3" to-layer="4972" to-port="0" />
		<edge from-layer="4972" from-port="2" to-layer="4974" to-port="2" />
		<edge from-layer="4973" from-port="0" to-layer="4974" to-port="3" />
		<edge from-layer="4974" from-port="4" to-layer="4976" to-port="2" />
		<edge from-layer="4975" from-port="0" to-layer="4976" to-port="3" />
		<edge from-layer="4976" from-port="4" to-layer="4977" to-port="3" />
		<edge from-layer="4977" from-port="4" to-layer="4979" to-port="0" />
		<edge from-layer="4978" from-port="0" to-layer="4979" to-port="1" />
		<edge from-layer="4979" from-port="2" to-layer="4985" to-port="0" />
		<edge from-layer="4980" from-port="1" to-layer="4983" to-port="0" />
		<edge from-layer="4981" from-port="0" to-layer="4983" to-port="1" />
		<edge from-layer="4982" from-port="0" to-layer="4983" to-port="2" />
		<edge from-layer="4983" from-port="3" to-layer="4984" to-port="0" />
		<edge from-layer="4984" from-port="2" to-layer="4985" to-port="1" />
		<edge from-layer="4985" from-port="2" to-layer="4994" to-port="0" />
		<edge from-layer="4986" from-port="0" to-layer="4987" to-port="0" />
		<edge from-layer="4987" from-port="1" to-layer="4990" to-port="0" />
		<edge from-layer="4988" from-port="0" to-layer="4989" to-port="0" />
		<edge from-layer="4989" from-port="1" to-layer="4990" to-port="1" />
		<edge from-layer="4990" from-port="2" to-layer="4992" to-port="0" />
		<edge from-layer="4991" from-port="0" to-layer="4992" to-port="1" />
		<edge from-layer="4992" from-port="2" to-layer="4993" to-port="0" />
		<edge from-layer="4993" from-port="1" to-layer="4994" to-port="1" />
		<edge from-layer="4994" from-port="2" to-layer="4995" to-port="1" />
		<edge from-layer="4995" from-port="2" to-layer="5006" to-port="0" />
		<edge from-layer="4995" from-port="2" to-layer="4999" to-port="0" />
		<edge from-layer="4995" from-port="2" to-layer="5037" to-port="0" />
		<edge from-layer="4996" from-port="0" to-layer="5007" to-port="0" />
		<edge from-layer="4997" from-port="0" to-layer="5005" to-port="0" />
		<edge from-layer="4998" from-port="0" to-layer="4999" to-port="1" />
		<edge from-layer="4999" from-port="2" to-layer="5001" to-port="0" />
		<edge from-layer="5000" from-port="0" to-layer="5001" to-port="1" />
		<edge from-layer="5001" from-port="2" to-layer="5003" to-port="0" />
		<edge from-layer="5002" from-port="0" to-layer="5003" to-port="1" />
		<edge from-layer="5003" from-port="2" to-layer="5004" to-port="0" />
		<edge from-layer="5004" from-port="1" to-layer="5005" to-port="1" />
		<edge from-layer="5005" from-port="2" to-layer="5006" to-port="1" />
		<edge from-layer="5006" from-port="2" to-layer="5007" to-port="1" />
		<edge from-layer="5007" from-port="2" to-layer="5016" to-port="0" />
		<edge from-layer="5007" from-port="2" to-layer="5026" to-port="0" />
		<edge from-layer="5008" from-port="0" to-layer="5009" to-port="0" />
		<edge from-layer="5009" from-port="1" to-layer="5012" to-port="0" />
		<edge from-layer="5010" from-port="0" to-layer="5011" to-port="0" />
		<edge from-layer="5011" from-port="1" to-layer="5012" to-port="1" />
		<edge from-layer="5012" from-port="2" to-layer="5014" to-port="0" />
		<edge from-layer="5013" from-port="0" to-layer="5014" to-port="1" />
		<edge from-layer="5014" from-port="2" to-layer="5015" to-port="0" />
		<edge from-layer="5015" from-port="1" to-layer="5016" to-port="1" />
		<edge from-layer="5016" from-port="2" to-layer="5017" to-port="0" />
		<edge from-layer="5017" from-port="1" to-layer="5027" to-port="0" />
		<edge from-layer="5018" from-port="0" to-layer="5019" to-port="0" />
		<edge from-layer="5019" from-port="1" to-layer="5022" to-port="0" />
		<edge from-layer="5020" from-port="0" to-layer="5021" to-port="0" />
		<edge from-layer="5021" from-port="1" to-layer="5022" to-port="1" />
		<edge from-layer="5022" from-port="2" to-layer="5024" to-port="0" />
		<edge from-layer="5023" from-port="0" to-layer="5024" to-port="1" />
		<edge from-layer="5024" from-port="2" to-layer="5025" to-port="0" />
		<edge from-layer="5025" from-port="1" to-layer="5026" to-port="1" />
		<edge from-layer="5026" from-port="2" to-layer="5027" to-port="1" />
		<edge from-layer="5027" from-port="2" to-layer="5036" to-port="0" />
		<edge from-layer="5028" from-port="0" to-layer="5029" to-port="0" />
		<edge from-layer="5029" from-port="1" to-layer="5032" to-port="0" />
		<edge from-layer="5030" from-port="0" to-layer="5031" to-port="0" />
		<edge from-layer="5031" from-port="1" to-layer="5032" to-port="1" />
		<edge from-layer="5032" from-port="2" to-layer="5034" to-port="0" />
		<edge from-layer="5033" from-port="0" to-layer="5034" to-port="1" />
		<edge from-layer="5034" from-port="2" to-layer="5035" to-port="0" />
		<edge from-layer="5035" from-port="1" to-layer="5036" to-port="1" />
		<edge from-layer="5036" from-port="2" to-layer="5037" to-port="1" />
		<edge from-layer="5037" from-port="2" to-layer="5040" to-port="0" />
		<edge from-layer="5037" from-port="2" to-layer="5047" to-port="0" />
		<edge from-layer="5038" from-port="0" to-layer="5046" to-port="0" />
		<edge from-layer="5039" from-port="0" to-layer="5040" to-port="1" />
		<edge from-layer="5040" from-port="2" to-layer="5042" to-port="0" />
		<edge from-layer="5041" from-port="0" to-layer="5042" to-port="1" />
		<edge from-layer="5042" from-port="2" to-layer="5044" to-port="0" />
		<edge from-layer="5043" from-port="0" to-layer="5044" to-port="1" />
		<edge from-layer="5044" from-port="2" to-layer="5045" to-port="0" />
		<edge from-layer="5045" from-port="1" to-layer="5046" to-port="1" />
		<edge from-layer="5046" from-port="2" to-layer="5047" to-port="1" />
		<edge from-layer="5047" from-port="2" to-layer="5048" to-port="1" />
		<edge from-layer="5048" from-port="2" to-layer="5057" to-port="0" />
		<edge from-layer="5049" from-port="0" to-layer="5050" to-port="0" />
		<edge from-layer="5050" from-port="1" to-layer="5053" to-port="0" />
		<edge from-layer="5051" from-port="0" to-layer="5052" to-port="0" />
		<edge from-layer="5052" from-port="1" to-layer="5053" to-port="1" />
		<edge from-layer="5053" from-port="2" to-layer="5055" to-port="0" />
		<edge from-layer="5054" from-port="0" to-layer="5055" to-port="1" />
		<edge from-layer="5055" from-port="2" to-layer="5056" to-port="0" />
		<edge from-layer="5056" from-port="1" to-layer="5057" to-port="1" />
		<edge from-layer="5057" from-port="2" to-layer="5058" to-port="0" />
	</edges>
	<rt_info>
		<Runtime_version value="2024.2.0-15519-5c0f38f83f6-releases/2024/2" />
		<conversion_parameters>
			<framework value="pytorch" />
			<is_python_object value="True" />
		</conversion_parameters>
		<nncf>
			<friendly_names_were_updated value="True" />
			<weight_compression>
				<all_layers value="False" />
				<awq value="False" />
				<gptq value="False" />
				<group_size value="-1" />
				<ignored_scope value="[]" />
				<mode value="int8_asym" />
				<ratio value="1.0" />
				<scale_estimation value="False" />
				<sensitivity_metric value="weight_quantization_error" />
			</weight_compression>
		</nncf>
		<optimum>
			<nncf_version value="2.11.0" />
			<optimum_intel_version value="1.18.1" />
			<optimum_version value="1.21.2" />
			<pytorch_version value="2.3.1" />
			<transformers_version value="4.42.4" />
		</optimum>
	</rt_info>
</net>
